__________________________________________________________________________________________________
Layer (type)                    Output Shape         Param #     Connected to                     
==================================================================================================
inputr (InputLayer)             (200, 256)           0                                            
__________________________________________________________________________________________________
inputi (InputLayer)             (200, 256)           0                                            
__________________________________________________________________________________________________
lambda_1 (Lambda)               (200, 128)           0           inputr[0][0]                     
__________________________________________________________________________________________________
lambda_2 (Lambda)               (200, 128)           0           inputi[0][0]                     
__________________________________________________________________________________________________
lambda_3 (Lambda)               (200, 64)            0           lambda_1[0][0]                   
__________________________________________________________________________________________________
lambda_4 (Lambda)               (200, 64)            0           lambda_2[0][0]                   
__________________________________________________________________________________________________
lambda_5 (Lambda)               (200, 32)            0           lambda_3[0][0]                   
__________________________________________________________________________________________________
lambda_6 (Lambda)               (200, 32)            0           lambda_4[0][0]                   
__________________________________________________________________________________________________
dense_1 (Dense)                 (200, 32)            1024        lambda_5[0][0]                   
                                                                 lambda_6[0][0]                   
__________________________________________________________________________________________________
dense_2 (Dense)                 (200, 32)            1024        lambda_6[0][0]                   
                                                                 lambda_5[0][0]                   
__________________________________________________________________________________________________
subtract_1 (Subtract)           (200, 32)            0           dense_1[0][0]                    
                                                                 dense_2[0][0]                    
__________________________________________________________________________________________________
add_1 (Add)                     (200, 32)            0           dense_1[1][0]                    
                                                                 dense_2[1][0]                    
__________________________________________________________________________________________________
dense_3 (Dense)                 (200, 32)            1024        subtract_1[0][0]                 
                                                                 add_1[0][0]                      
__________________________________________________________________________________________________
dense_4 (Dense)                 (200, 32)            1024        add_1[0][0]                      
                                                                 subtract_1[0][0]                 
__________________________________________________________________________________________________
lambda_7 (Lambda)               (200, 32)            0           lambda_3[0][0]                   
__________________________________________________________________________________________________
subtract_2 (Subtract)           (200, 32)            0           dense_3[0][0]                    
                                                                 dense_4[0][0]                    
__________________________________________________________________________________________________
lambda_8 (Lambda)               (200, 32)            0           lambda_4[0][0]                   
__________________________________________________________________________________________________
add_2 (Add)                     (200, 32)            0           dense_3[1][0]                    
                                                                 dense_4[1][0]                    
__________________________________________________________________________________________________
subtract_3 (Subtract)           (200, 32)            0           lambda_7[0][0]                   
                                                                 subtract_2[0][0]                 
__________________________________________________________________________________________________
subtract_4 (Subtract)           (200, 32)            0           lambda_8[0][0]                   
                                                                 add_2[0][0]                      
__________________________________________________________________________________________________
dense_5 (Dense)                 (200, 32)            1024        subtract_3[0][0]                 
                                                                 subtract_4[0][0]                 
__________________________________________________________________________________________________
dense_6 (Dense)                 (200, 32)            1024        subtract_4[0][0]                 
                                                                 subtract_3[0][0]                 
__________________________________________________________________________________________________
subtract_5 (Subtract)           (200, 32)            0           dense_5[0][0]                    
                                                                 dense_6[0][0]                    
__________________________________________________________________________________________________
add_3 (Add)                     (200, 32)            0           dense_5[1][0]                    
                                                                 dense_6[1][0]                    
__________________________________________________________________________________________________
concatenate_1 (Concatenate)     (200, 64)            0           subtract_1[0][0]                 
                                                                 subtract_5[0][0]                 
__________________________________________________________________________________________________
concatenate_2 (Concatenate)     (200, 64)            0           add_1[0][0]                      
                                                                 add_3[0][0]                      
__________________________________________________________________________________________________
lambda_9 (Lambda)               (200, 8)             0           concatenate_1[0][0]              
__________________________________________________________________________________________________
lambda_11 (Lambda)              (200, 8)             0           concatenate_1[0][0]              
__________________________________________________________________________________________________
lambda_10 (Lambda)              (200, 8)             0           concatenate_2[0][0]              
__________________________________________________________________________________________________
lambda_12 (Lambda)              (200, 8)             0           concatenate_2[0][0]              
__________________________________________________________________________________________________
lambda_13 (Lambda)              (200, 8)             0           concatenate_1[0][0]              
__________________________________________________________________________________________________
lambda_15 (Lambda)              (200, 8)             0           concatenate_1[0][0]              
__________________________________________________________________________________________________
lambda_14 (Lambda)              (200, 8)             0           concatenate_2[0][0]              
__________________________________________________________________________________________________
lambda_16 (Lambda)              (200, 8)             0           concatenate_2[0][0]              
__________________________________________________________________________________________________
lambda_17 (Lambda)              (200, 8)             0           concatenate_1[0][0]              
__________________________________________________________________________________________________
lambda_19 (Lambda)              (200, 8)             0           concatenate_1[0][0]              
__________________________________________________________________________________________________
lambda_18 (Lambda)              (200, 8)             0           concatenate_2[0][0]              
__________________________________________________________________________________________________
lambda_20 (Lambda)              (200, 8)             0           concatenate_2[0][0]              
__________________________________________________________________________________________________
lambda_21 (Lambda)              (200, 8)             0           concatenate_1[0][0]              
__________________________________________________________________________________________________
lambda_23 (Lambda)              (200, 8)             0           concatenate_1[0][0]              
__________________________________________________________________________________________________
lambda_22 (Lambda)              (200, 8)             0           concatenate_2[0][0]              
__________________________________________________________________________________________________
lambda_24 (Lambda)              (200, 8)             0           concatenate_2[0][0]              
__________________________________________________________________________________________________
concatenate_3 (Concatenate)     (200, 16)            0           lambda_9[0][0]                   
                                                                 lambda_11[0][0]                  
__________________________________________________________________________________________________
concatenate_4 (Concatenate)     (200, 16)            0           lambda_10[0][0]                  
                                                                 lambda_12[0][0]                  
__________________________________________________________________________________________________
concatenate_5 (Concatenate)     (200, 16)            0           lambda_13[0][0]                  
                                                                 lambda_15[0][0]                  
__________________________________________________________________________________________________
concatenate_6 (Concatenate)     (200, 16)            0           lambda_14[0][0]                  
                                                                 lambda_16[0][0]                  
__________________________________________________________________________________________________
concatenate_7 (Concatenate)     (200, 16)            0           lambda_17[0][0]                  
                                                                 lambda_19[0][0]                  
__________________________________________________________________________________________________
concatenate_8 (Concatenate)     (200, 16)            0           lambda_18[0][0]                  
                                                                 lambda_20[0][0]                  
__________________________________________________________________________________________________
concatenate_9 (Concatenate)     (200, 16)            0           lambda_21[0][0]                  
                                                                 lambda_23[0][0]                  
__________________________________________________________________________________________________
concatenate_10 (Concatenate)    (200, 16)            0           lambda_22[0][0]                  
                                                                 lambda_24[0][0]                  
__________________________________________________________________________________________________
dense_7 (Dense)                 (200, 5)             80          concatenate_3[0][0]              
                                                                 concatenate_4[0][0]              
__________________________________________________________________________________________________
dense_8 (Dense)                 (200, 5)             80          concatenate_4[0][0]              
                                                                 concatenate_3[0][0]              
__________________________________________________________________________________________________
dense_9 (Dense)                 (200, 5)             80          concatenate_5[0][0]              
                                                                 concatenate_6[0][0]              
__________________________________________________________________________________________________
dense_10 (Dense)                (200, 5)             80          concatenate_6[0][0]              
                                                                 concatenate_5[0][0]              
__________________________________________________________________________________________________
dense_11 (Dense)                (200, 5)             80          concatenate_7[0][0]              
                                                                 concatenate_8[0][0]              
__________________________________________________________________________________________________
dense_12 (Dense)                (200, 5)             80          concatenate_8[0][0]              
                                                                 concatenate_7[0][0]              
__________________________________________________________________________________________________
dense_13 (Dense)                (200, 5)             80          concatenate_9[0][0]              
                                                                 concatenate_10[0][0]             
__________________________________________________________________________________________________
dense_14 (Dense)                (200, 5)             80          concatenate_10[0][0]             
                                                                 concatenate_9[0][0]              
__________________________________________________________________________________________________
concatenate_11 (Concatenate)    (200, 16)            0           lambda_9[0][0]                   
                                                                 lambda_11[0][0]                  
__________________________________________________________________________________________________
concatenate_12 (Concatenate)    (200, 16)            0           lambda_10[0][0]                  
                                                                 lambda_12[0][0]                  
__________________________________________________________________________________________________
concatenate_13 (Concatenate)    (200, 16)            0           lambda_13[0][0]                  
                                                                 lambda_15[0][0]                  
__________________________________________________________________________________________________
concatenate_14 (Concatenate)    (200, 16)            0           lambda_14[0][0]                  
                                                                 lambda_16[0][0]                  
__________________________________________________________________________________________________
concatenate_15 (Concatenate)    (200, 16)            0           lambda_17[0][0]                  
                                                                 lambda_19[0][0]                  
__________________________________________________________________________________________________
concatenate_16 (Concatenate)    (200, 16)            0           lambda_18[0][0]                  
                                                                 lambda_20[0][0]                  
__________________________________________________________________________________________________
concatenate_17 (Concatenate)    (200, 16)            0           lambda_21[0][0]                  
                                                                 lambda_23[0][0]                  
__________________________________________________________________________________________________
concatenate_18 (Concatenate)    (200, 16)            0           lambda_22[0][0]                  
                                                                 lambda_24[0][0]                  
__________________________________________________________________________________________________
subtract_6 (Subtract)           (200, 5)             0           dense_7[0][0]                    
                                                                 dense_8[0][0]                    
__________________________________________________________________________________________________
subtract_7 (Subtract)           (200, 5)             0           dense_9[0][0]                    
                                                                 dense_10[0][0]                   
__________________________________________________________________________________________________
add_4 (Add)                     (200, 5)             0           dense_7[1][0]                    
                                                                 dense_8[1][0]                    
__________________________________________________________________________________________________
add_5 (Add)                     (200, 5)             0           dense_9[1][0]                    
                                                                 dense_10[1][0]                   
__________________________________________________________________________________________________
subtract_8 (Subtract)           (200, 5)             0           dense_11[0][0]                   
                                                                 dense_12[0][0]                   
__________________________________________________________________________________________________
subtract_9 (Subtract)           (200, 5)             0           dense_13[0][0]                   
                                                                 dense_14[0][0]                   
__________________________________________________________________________________________________
add_6 (Add)                     (200, 5)             0           dense_11[1][0]                   
                                                                 dense_12[1][0]                   
__________________________________________________________________________________________________
add_7 (Add)                     (200, 5)             0           dense_13[1][0]                   
                                                                 dense_14[1][0]                   
__________________________________________________________________________________________________
dense_15 (Dense)                (200, 5)             80          concatenate_11[0][0]             
                                                                 concatenate_12[0][0]             
__________________________________________________________________________________________________
dense_16 (Dense)                (200, 5)             80          concatenate_12[0][0]             
                                                                 concatenate_11[0][0]             
__________________________________________________________________________________________________
dense_17 (Dense)                (200, 5)             80          concatenate_13[0][0]             
                                                                 concatenate_14[0][0]             
__________________________________________________________________________________________________
dense_18 (Dense)                (200, 5)             80          concatenate_14[0][0]             
                                                                 concatenate_13[0][0]             
__________________________________________________________________________________________________
dense_19 (Dense)                (200, 5)             80          concatenate_15[0][0]             
                                                                 concatenate_16[0][0]             
__________________________________________________________________________________________________
dense_20 (Dense)                (200, 5)             80          concatenate_16[0][0]             
                                                                 concatenate_15[0][0]             
__________________________________________________________________________________________________
dense_21 (Dense)                (200, 5)             80          concatenate_17[0][0]             
                                                                 concatenate_18[0][0]             
__________________________________________________________________________________________________
dense_22 (Dense)                (200, 5)             80          concatenate_18[0][0]             
                                                                 concatenate_17[0][0]             
__________________________________________________________________________________________________
concatenate_19 (Concatenate)    (200, 10)            0           subtract_6[0][0]                 
                                                                 subtract_7[0][0]                 
__________________________________________________________________________________________________
concatenate_20 (Concatenate)    (200, 10)            0           add_4[0][0]                      
                                                                 add_5[0][0]                      
__________________________________________________________________________________________________
concatenate_23 (Concatenate)    (200, 10)            0           subtract_8[0][0]                 
                                                                 subtract_9[0][0]                 
__________________________________________________________________________________________________
concatenate_24 (Concatenate)    (200, 10)            0           add_6[0][0]                      
                                                                 add_7[0][0]                      
__________________________________________________________________________________________________
subtract_10 (Subtract)          (200, 5)             0           dense_15[0][0]                   
                                                                 dense_16[0][0]                   
__________________________________________________________________________________________________
subtract_11 (Subtract)          (200, 5)             0           dense_17[0][0]                   
                                                                 dense_18[0][0]                   
__________________________________________________________________________________________________
add_8 (Add)                     (200, 5)             0           dense_15[1][0]                   
                                                                 dense_16[1][0]                   
__________________________________________________________________________________________________
add_9 (Add)                     (200, 5)             0           dense_17[1][0]                   
                                                                 dense_18[1][0]                   
__________________________________________________________________________________________________
subtract_12 (Subtract)          (200, 5)             0           dense_19[0][0]                   
                                                                 dense_20[0][0]                   
__________________________________________________________________________________________________
subtract_13 (Subtract)          (200, 5)             0           dense_21[0][0]                   
                                                                 dense_22[0][0]                   
__________________________________________________________________________________________________
add_10 (Add)                    (200, 5)             0           dense_19[1][0]                   
                                                                 dense_20[1][0]                   
__________________________________________________________________________________________________
add_11 (Add)                    (200, 5)             0           dense_21[1][0]                   
                                                                 dense_22[1][0]                   
__________________________________________________________________________________________________
dense_23 (Dense)                (200, 10)            100         concatenate_19[0][0]             
                                                                 concatenate_20[0][0]             
__________________________________________________________________________________________________
dense_24 (Dense)                (200, 10)            100         concatenate_20[0][0]             
                                                                 concatenate_19[0][0]             
__________________________________________________________________________________________________
dense_27 (Dense)                (200, 10)            100         concatenate_23[0][0]             
                                                                 concatenate_24[0][0]             
__________________________________________________________________________________________________
dense_28 (Dense)                (200, 10)            100         concatenate_24[0][0]             
                                                                 concatenate_23[0][0]             
__________________________________________________________________________________________________
concatenate_21 (Concatenate)    (200, 10)            0           subtract_10[0][0]                
                                                                 subtract_11[0][0]                
__________________________________________________________________________________________________
concatenate_22 (Concatenate)    (200, 10)            0           add_8[0][0]                      
                                                                 add_9[0][0]                      
__________________________________________________________________________________________________
concatenate_25 (Concatenate)    (200, 10)            0           subtract_12[0][0]                
                                                                 subtract_13[0][0]                
__________________________________________________________________________________________________
concatenate_26 (Concatenate)    (200, 10)            0           add_10[0][0]                     
                                                                 add_11[0][0]                     
__________________________________________________________________________________________________
subtract_14 (Subtract)          (200, 10)            0           dense_23[0][0]                   
                                                                 dense_24[0][0]                   
__________________________________________________________________________________________________
add_12 (Add)                    (200, 10)            0           dense_23[1][0]                   
                                                                 dense_24[1][0]                   
__________________________________________________________________________________________________
subtract_16 (Subtract)          (200, 10)            0           dense_27[0][0]                   
                                                                 dense_28[0][0]                   
__________________________________________________________________________________________________
add_14 (Add)                    (200, 10)            0           dense_27[1][0]                   
                                                                 dense_28[1][0]                   
__________________________________________________________________________________________________
dense_25 (Dense)                (200, 10)            100         concatenate_21[0][0]             
                                                                 concatenate_22[0][0]             
__________________________________________________________________________________________________
dense_26 (Dense)                (200, 10)            100         concatenate_22[0][0]             
                                                                 concatenate_21[0][0]             
__________________________________________________________________________________________________
dense_29 (Dense)                (200, 10)            100         concatenate_25[0][0]             
                                                                 concatenate_26[0][0]             
__________________________________________________________________________________________________
dense_30 (Dense)                (200, 10)            100         concatenate_26[0][0]             
                                                                 concatenate_25[0][0]             
__________________________________________________________________________________________________
lambda_25 (Lambda)              (200, 5)             0           subtract_14[0][0]                
__________________________________________________________________________________________________
lambda_26 (Lambda)              (200, 5)             0           add_12[0][0]                     
__________________________________________________________________________________________________
lambda_33 (Lambda)              (200, 5)             0           subtract_16[0][0]                
__________________________________________________________________________________________________
lambda_34 (Lambda)              (200, 5)             0           add_14[0][0]                     
__________________________________________________________________________________________________
lambda_27 (Lambda)              (200, 5)             0           subtract_14[0][0]                
__________________________________________________________________________________________________
lambda_28 (Lambda)              (200, 5)             0           add_12[0][0]                     
__________________________________________________________________________________________________
lambda_35 (Lambda)              (200, 5)             0           subtract_16[0][0]                
__________________________________________________________________________________________________
lambda_36 (Lambda)              (200, 5)             0           add_14[0][0]                     
__________________________________________________________________________________________________
subtract_15 (Subtract)          (200, 10)            0           dense_25[0][0]                   
                                                                 dense_26[0][0]                   
__________________________________________________________________________________________________
add_13 (Add)                    (200, 10)            0           dense_25[1][0]                   
                                                                 dense_26[1][0]                   
__________________________________________________________________________________________________
subtract_17 (Subtract)          (200, 10)            0           dense_29[0][0]                   
                                                                 dense_30[0][0]                   
__________________________________________________________________________________________________
add_15 (Add)                    (200, 10)            0           dense_29[1][0]                   
                                                                 dense_30[1][0]                   
__________________________________________________________________________________________________
dense_31 (Dense)                (200, 16)            80          lambda_25[0][0]                  
                                                                 lambda_26[0][0]                  
__________________________________________________________________________________________________
dense_32 (Dense)                (200, 16)            80          lambda_26[0][0]                  
                                                                 lambda_25[0][0]                  
__________________________________________________________________________________________________
dense_33 (Dense)                (200, 16)            80          lambda_33[0][0]                  
                                                                 lambda_34[0][0]                  
__________________________________________________________________________________________________
dense_34 (Dense)                (200, 16)            80          lambda_34[0][0]                  
                                                                 lambda_33[0][0]                  
__________________________________________________________________________________________________
dense_35 (Dense)                (200, 16)            80          lambda_27[0][0]                  
                                                                 lambda_28[0][0]                  
__________________________________________________________________________________________________
dense_36 (Dense)                (200, 16)            80          lambda_28[0][0]                  
                                                                 lambda_27[0][0]                  
__________________________________________________________________________________________________
dense_37 (Dense)                (200, 16)            80          lambda_35[0][0]                  
                                                                 lambda_36[0][0]                  
__________________________________________________________________________________________________
dense_38 (Dense)                (200, 16)            80          lambda_36[0][0]                  
                                                                 lambda_35[0][0]                  
__________________________________________________________________________________________________
lambda_29 (Lambda)              (200, 5)             0           subtract_15[0][0]                
__________________________________________________________________________________________________
lambda_30 (Lambda)              (200, 5)             0           add_13[0][0]                     
__________________________________________________________________________________________________
lambda_37 (Lambda)              (200, 5)             0           subtract_17[0][0]                
__________________________________________________________________________________________________
lambda_38 (Lambda)              (200, 5)             0           add_15[0][0]                     
__________________________________________________________________________________________________
subtract_18 (Subtract)          (200, 16)            0           dense_31[0][0]                   
                                                                 dense_32[0][0]                   
__________________________________________________________________________________________________
subtract_19 (Subtract)          (200, 16)            0           dense_33[0][0]                   
                                                                 dense_34[0][0]                   
__________________________________________________________________________________________________
subtract_20 (Subtract)          (200, 16)            0           dense_35[0][0]                   
                                                                 dense_36[0][0]                   
__________________________________________________________________________________________________
subtract_21 (Subtract)          (200, 16)            0           dense_37[0][0]                   
                                                                 dense_38[0][0]                   
__________________________________________________________________________________________________
dense_39 (Dense)                (200, 16)            80          lambda_29[0][0]                  
                                                                 lambda_30[0][0]                  
__________________________________________________________________________________________________
dense_40 (Dense)                (200, 16)            80          lambda_30[0][0]                  
                                                                 lambda_29[0][0]                  
__________________________________________________________________________________________________
dense_41 (Dense)                (200, 16)            80          lambda_37[0][0]                  
                                                                 lambda_38[0][0]                  
__________________________________________________________________________________________________
dense_42 (Dense)                (200, 16)            80          lambda_38[0][0]                  
                                                                 lambda_37[0][0]                  
__________________________________________________________________________________________________
lambda_31 (Lambda)              (200, 5)             0           subtract_15[0][0]                
__________________________________________________________________________________________________
lambda_32 (Lambda)              (200, 5)             0           add_13[0][0]                     
__________________________________________________________________________________________________
lambda_39 (Lambda)              (200, 5)             0           subtract_17[0][0]                
__________________________________________________________________________________________________
lambda_40 (Lambda)              (200, 5)             0           add_15[0][0]                     
__________________________________________________________________________________________________
add_16 (Add)                    (200, 16)            0           dense_31[1][0]                   
                                                                 dense_32[1][0]                   
__________________________________________________________________________________________________
add_17 (Add)                    (200, 16)            0           dense_33[1][0]                   
                                                                 dense_34[1][0]                   
__________________________________________________________________________________________________
add_20 (Add)                    (200, 16)            0           dense_35[1][0]                   
                                                                 dense_36[1][0]                   
__________________________________________________________________________________________________
add_21 (Add)                    (200, 16)            0           dense_37[1][0]                   
                                                                 dense_38[1][0]                   
__________________________________________________________________________________________________
add_18 (Add)                    (200, 16)            0           subtract_18[0][0]                
                                                                 subtract_19[0][0]                
__________________________________________________________________________________________________
add_22 (Add)                    (200, 16)            0           subtract_20[0][0]                
                                                                 subtract_21[0][0]                
__________________________________________________________________________________________________
subtract_22 (Subtract)          (200, 16)            0           dense_39[0][0]                   
                                                                 dense_40[0][0]                   
__________________________________________________________________________________________________
subtract_23 (Subtract)          (200, 16)            0           dense_41[0][0]                   
                                                                 dense_42[0][0]                   
__________________________________________________________________________________________________
dense_43 (Dense)                (200, 16)            80          lambda_31[0][0]                  
                                                                 lambda_32[0][0]                  
__________________________________________________________________________________________________
dense_44 (Dense)                (200, 16)            80          lambda_32[0][0]                  
                                                                 lambda_31[0][0]                  
__________________________________________________________________________________________________
dense_45 (Dense)                (200, 16)            80          lambda_39[0][0]                  
                                                                 lambda_40[0][0]                  
__________________________________________________________________________________________________
dense_46 (Dense)                (200, 16)            80          lambda_40[0][0]                  
                                                                 lambda_39[0][0]                  
__________________________________________________________________________________________________
add_19 (Add)                    (200, 16)            0           add_16[0][0]                     
                                                                 add_17[0][0]                     
__________________________________________________________________________________________________
add_23 (Add)                    (200, 16)            0           add_20[0][0]                     
                                                                 add_21[0][0]                     
__________________________________________________________________________________________________
add_24 (Add)                    (200, 16)            0           dense_39[1][0]                   
                                                                 dense_40[1][0]                   
__________________________________________________________________________________________________
add_25 (Add)                    (200, 16)            0           dense_41[1][0]                   
                                                                 dense_42[1][0]                   
__________________________________________________________________________________________________
concatenate_27 (Concatenate)    (200, 32)            0           add_18[0][0]                     
                                                                 add_22[0][0]                     
__________________________________________________________________________________________________
add_26 (Add)                    (200, 16)            0           subtract_22[0][0]                
                                                                 subtract_23[0][0]                
__________________________________________________________________________________________________
subtract_24 (Subtract)          (200, 16)            0           dense_43[0][0]                   
                                                                 dense_44[0][0]                   
__________________________________________________________________________________________________
subtract_25 (Subtract)          (200, 16)            0           dense_45[0][0]                   
                                                                 dense_46[0][0]                   
__________________________________________________________________________________________________
concatenate_28 (Concatenate)    (200, 32)            0           add_19[0][0]                     
                                                                 add_23[0][0]                     
__________________________________________________________________________________________________
add_27 (Add)                    (200, 16)            0           add_24[0][0]                     
                                                                 add_25[0][0]                     
__________________________________________________________________________________________________
add_28 (Add)                    (200, 16)            0           dense_43[1][0]                   
                                                                 dense_44[1][0]                   
__________________________________________________________________________________________________
add_29 (Add)                    (200, 16)            0           dense_45[1][0]                   
                                                                 dense_46[1][0]                   
__________________________________________________________________________________________________
concatenate_29 (Concatenate)    (200, 48)            0           concatenate_27[0][0]             
                                                                 add_26[0][0]                     
__________________________________________________________________________________________________
add_30 (Add)                    (200, 16)            0           subtract_24[0][0]                
                                                                 subtract_25[0][0]                
__________________________________________________________________________________________________
concatenate_30 (Concatenate)    (200, 48)            0           concatenate_28[0][0]             
                                                                 add_27[0][0]                     
__________________________________________________________________________________________________
add_31 (Add)                    (200, 16)            0           add_28[0][0]                     
                                                                 add_29[0][0]                     
__________________________________________________________________________________________________
lambda_41 (Lambda)              (200, 64)            0           lambda_1[0][0]                   
__________________________________________________________________________________________________
concatenate_31 (Concatenate)    (200, 64)            0           concatenate_29[0][0]             
                                                                 add_30[0][0]                     
__________________________________________________________________________________________________
lambda_42 (Lambda)              (200, 64)            0           lambda_2[0][0]                   
__________________________________________________________________________________________________
concatenate_32 (Concatenate)    (200, 64)            0           concatenate_30[0][0]             
                                                                 add_31[0][0]                     
__________________________________________________________________________________________________
subtract_26 (Subtract)          (200, 64)            0           lambda_41[0][0]                  
                                                                 concatenate_31[0][0]             
__________________________________________________________________________________________________
subtract_27 (Subtract)          (200, 64)            0           lambda_42[0][0]                  
                                                                 concatenate_32[0][0]             
__________________________________________________________________________________________________
lambda_43 (Lambda)              (200, 32)            0           subtract_26[0][0]                
__________________________________________________________________________________________________
lambda_44 (Lambda)              (200, 32)            0           subtract_27[0][0]                
__________________________________________________________________________________________________
dense_47 (Dense)                (200, 32)            1024        lambda_43[0][0]                  
                                                                 lambda_44[0][0]                  
__________________________________________________________________________________________________
dense_48 (Dense)                (200, 32)            1024        lambda_44[0][0]                  
                                                                 lambda_43[0][0]                  
__________________________________________________________________________________________________
subtract_28 (Subtract)          (200, 32)            0           dense_47[0][0]                   
                                                                 dense_48[0][0]                   
__________________________________________________________________________________________________
add_32 (Add)                    (200, 32)            0           dense_47[1][0]                   
                                                                 dense_48[1][0]                   
__________________________________________________________________________________________________
dense_49 (Dense)                (200, 32)            1024        subtract_28[0][0]                
                                                                 add_32[0][0]                     
__________________________________________________________________________________________________
dense_50 (Dense)                (200, 32)            1024        add_32[0][0]                     
                                                                 subtract_28[0][0]                
__________________________________________________________________________________________________
lambda_45 (Lambda)              (200, 32)            0           subtract_26[0][0]                
__________________________________________________________________________________________________
subtract_29 (Subtract)          (200, 32)            0           dense_49[0][0]                   
                                                                 dense_50[0][0]                   
__________________________________________________________________________________________________
lambda_46 (Lambda)              (200, 32)            0           subtract_27[0][0]                
__________________________________________________________________________________________________
add_33 (Add)                    (200, 32)            0           dense_49[1][0]                   
                                                                 dense_50[1][0]                   
__________________________________________________________________________________________________
subtract_30 (Subtract)          (200, 32)            0           lambda_45[0][0]                  
                                                                 subtract_29[0][0]                
__________________________________________________________________________________________________
subtract_31 (Subtract)          (200, 32)            0           lambda_46[0][0]                  
                                                                 add_33[0][0]                     
__________________________________________________________________________________________________
dense_51 (Dense)                (200, 32)            1024        subtract_30[0][0]                
                                                                 subtract_31[0][0]                
__________________________________________________________________________________________________
dense_52 (Dense)                (200, 32)            1024        subtract_31[0][0]                
                                                                 subtract_30[0][0]                
__________________________________________________________________________________________________
subtract_32 (Subtract)          (200, 32)            0           dense_51[0][0]                   
                                                                 dense_52[0][0]                   
__________________________________________________________________________________________________
add_34 (Add)                    (200, 32)            0           dense_51[1][0]                   
                                                                 dense_52[1][0]                   
__________________________________________________________________________________________________
concatenate_33 (Concatenate)    (200, 64)            0           subtract_28[0][0]                
                                                                 subtract_32[0][0]                
__________________________________________________________________________________________________
concatenate_34 (Concatenate)    (200, 64)            0           add_32[0][0]                     
                                                                 add_34[0][0]                     
__________________________________________________________________________________________________
concatenate_35 (Concatenate)    (200, 128)           0           concatenate_1[0][0]              
                                                                 concatenate_33[0][0]             
__________________________________________________________________________________________________
concatenate_36 (Concatenate)    (200, 128)           0           concatenate_2[0][0]              
                                                                 concatenate_34[0][0]             
__________________________________________________________________________________________________
lambda_47 (Lambda)              (200, 4)             0           concatenate_35[0][0]             
__________________________________________________________________________________________________
lambda_49 (Lambda)              (200, 4)             0           concatenate_35[0][0]             
__________________________________________________________________________________________________
lambda_48 (Lambda)              (200, 4)             0           concatenate_36[0][0]             
__________________________________________________________________________________________________
lambda_50 (Lambda)              (200, 4)             0           concatenate_36[0][0]             
__________________________________________________________________________________________________
lambda_51 (Lambda)              (200, 4)             0           concatenate_35[0][0]             
__________________________________________________________________________________________________
lambda_53 (Lambda)              (200, 4)             0           concatenate_35[0][0]             
__________________________________________________________________________________________________
lambda_52 (Lambda)              (200, 4)             0           concatenate_36[0][0]             
__________________________________________________________________________________________________
lambda_54 (Lambda)              (200, 4)             0           concatenate_36[0][0]             
__________________________________________________________________________________________________
lambda_55 (Lambda)              (200, 4)             0           concatenate_35[0][0]             
__________________________________________________________________________________________________
lambda_57 (Lambda)              (200, 4)             0           concatenate_35[0][0]             
__________________________________________________________________________________________________
lambda_56 (Lambda)              (200, 4)             0           concatenate_36[0][0]             
__________________________________________________________________________________________________
lambda_58 (Lambda)              (200, 4)             0           concatenate_36[0][0]             
__________________________________________________________________________________________________
lambda_59 (Lambda)              (200, 4)             0           concatenate_35[0][0]             
__________________________________________________________________________________________________
lambda_61 (Lambda)              (200, 4)             0           concatenate_35[0][0]             
__________________________________________________________________________________________________
lambda_60 (Lambda)              (200, 4)             0           concatenate_36[0][0]             
__________________________________________________________________________________________________
lambda_62 (Lambda)              (200, 4)             0           concatenate_36[0][0]             
__________________________________________________________________________________________________
lambda_63 (Lambda)              (200, 4)             0           concatenate_35[0][0]             
__________________________________________________________________________________________________
lambda_65 (Lambda)              (200, 4)             0           concatenate_35[0][0]             
__________________________________________________________________________________________________
lambda_64 (Lambda)              (200, 4)             0           concatenate_36[0][0]             
__________________________________________________________________________________________________
lambda_66 (Lambda)              (200, 4)             0           concatenate_36[0][0]             
__________________________________________________________________________________________________
lambda_67 (Lambda)              (200, 4)             0           concatenate_35[0][0]             
__________________________________________________________________________________________________
lambda_69 (Lambda)              (200, 4)             0           concatenate_35[0][0]             
__________________________________________________________________________________________________
lambda_68 (Lambda)              (200, 4)             0           concatenate_36[0][0]             
__________________________________________________________________________________________________
lambda_70 (Lambda)              (200, 4)             0           concatenate_36[0][0]             
__________________________________________________________________________________________________
lambda_71 (Lambda)              (200, 4)             0           concatenate_35[0][0]             
__________________________________________________________________________________________________
lambda_73 (Lambda)              (200, 4)             0           concatenate_35[0][0]             
__________________________________________________________________________________________________
lambda_72 (Lambda)              (200, 4)             0           concatenate_36[0][0]             
__________________________________________________________________________________________________
lambda_74 (Lambda)              (200, 4)             0           concatenate_36[0][0]             
__________________________________________________________________________________________________
lambda_75 (Lambda)              (200, 4)             0           concatenate_35[0][0]             
__________________________________________________________________________________________________
lambda_77 (Lambda)              (200, 4)             0           concatenate_35[0][0]             
__________________________________________________________________________________________________
lambda_76 (Lambda)              (200, 4)             0           concatenate_36[0][0]             
__________________________________________________________________________________________________
lambda_78 (Lambda)              (200, 4)             0           concatenate_36[0][0]             
__________________________________________________________________________________________________
lambda_79 (Lambda)              (200, 4)             0           concatenate_35[0][0]             
__________________________________________________________________________________________________
lambda_81 (Lambda)              (200, 4)             0           concatenate_35[0][0]             
__________________________________________________________________________________________________
lambda_80 (Lambda)              (200, 4)             0           concatenate_36[0][0]             
__________________________________________________________________________________________________
lambda_82 (Lambda)              (200, 4)             0           concatenate_36[0][0]             
__________________________________________________________________________________________________
lambda_83 (Lambda)              (200, 4)             0           concatenate_35[0][0]             
__________________________________________________________________________________________________
lambda_85 (Lambda)              (200, 4)             0           concatenate_35[0][0]             
__________________________________________________________________________________________________
lambda_84 (Lambda)              (200, 4)             0           concatenate_36[0][0]             
__________________________________________________________________________________________________
lambda_86 (Lambda)              (200, 4)             0           concatenate_36[0][0]             
__________________________________________________________________________________________________
lambda_87 (Lambda)              (200, 4)             0           concatenate_35[0][0]             
__________________________________________________________________________________________________
lambda_89 (Lambda)              (200, 4)             0           concatenate_35[0][0]             
__________________________________________________________________________________________________
lambda_88 (Lambda)              (200, 4)             0           concatenate_36[0][0]             
__________________________________________________________________________________________________
lambda_90 (Lambda)              (200, 4)             0           concatenate_36[0][0]             
__________________________________________________________________________________________________
lambda_91 (Lambda)              (200, 4)             0           concatenate_35[0][0]             
__________________________________________________________________________________________________
lambda_93 (Lambda)              (200, 4)             0           concatenate_35[0][0]             
__________________________________________________________________________________________________
lambda_92 (Lambda)              (200, 4)             0           concatenate_36[0][0]             
__________________________________________________________________________________________________
lambda_94 (Lambda)              (200, 4)             0           concatenate_36[0][0]             
__________________________________________________________________________________________________
lambda_95 (Lambda)              (200, 4)             0           concatenate_35[0][0]             
__________________________________________________________________________________________________
lambda_97 (Lambda)              (200, 4)             0           concatenate_35[0][0]             
__________________________________________________________________________________________________
lambda_96 (Lambda)              (200, 4)             0           concatenate_36[0][0]             
__________________________________________________________________________________________________
lambda_98 (Lambda)              (200, 4)             0           concatenate_36[0][0]             
__________________________________________________________________________________________________
lambda_99 (Lambda)              (200, 4)             0           concatenate_35[0][0]             
__________________________________________________________________________________________________
lambda_101 (Lambda)             (200, 4)             0           concatenate_35[0][0]             
__________________________________________________________________________________________________
lambda_100 (Lambda)             (200, 4)             0           concatenate_36[0][0]             
__________________________________________________________________________________________________
lambda_102 (Lambda)             (200, 4)             0           concatenate_36[0][0]             
__________________________________________________________________________________________________
lambda_103 (Lambda)             (200, 4)             0           concatenate_35[0][0]             
__________________________________________________________________________________________________
lambda_105 (Lambda)             (200, 4)             0           concatenate_35[0][0]             
__________________________________________________________________________________________________
lambda_104 (Lambda)             (200, 4)             0           concatenate_36[0][0]             
__________________________________________________________________________________________________
lambda_106 (Lambda)             (200, 4)             0           concatenate_36[0][0]             
__________________________________________________________________________________________________
lambda_107 (Lambda)             (200, 4)             0           concatenate_35[0][0]             
__________________________________________________________________________________________________
lambda_109 (Lambda)             (200, 4)             0           concatenate_35[0][0]             
__________________________________________________________________________________________________
lambda_108 (Lambda)             (200, 4)             0           concatenate_36[0][0]             
__________________________________________________________________________________________________
lambda_110 (Lambda)             (200, 4)             0           concatenate_36[0][0]             
__________________________________________________________________________________________________
concatenate_37 (Concatenate)    (200, 8)             0           lambda_47[0][0]                  
                                                                 lambda_49[0][0]                  
__________________________________________________________________________________________________
concatenate_38 (Concatenate)    (200, 8)             0           lambda_48[0][0]                  
                                                                 lambda_50[0][0]                  
__________________________________________________________________________________________________
concatenate_39 (Concatenate)    (200, 8)             0           lambda_51[0][0]                  
                                                                 lambda_53[0][0]                  
__________________________________________________________________________________________________
concatenate_40 (Concatenate)    (200, 8)             0           lambda_52[0][0]                  
                                                                 lambda_54[0][0]                  
__________________________________________________________________________________________________
concatenate_41 (Concatenate)    (200, 8)             0           lambda_55[0][0]                  
                                                                 lambda_57[0][0]                  
__________________________________________________________________________________________________
concatenate_42 (Concatenate)    (200, 8)             0           lambda_56[0][0]                  
                                                                 lambda_58[0][0]                  
__________________________________________________________________________________________________
concatenate_43 (Concatenate)    (200, 8)             0           lambda_59[0][0]                  
                                                                 lambda_61[0][0]                  
__________________________________________________________________________________________________
concatenate_44 (Concatenate)    (200, 8)             0           lambda_60[0][0]                  
                                                                 lambda_62[0][0]                  
__________________________________________________________________________________________________
concatenate_45 (Concatenate)    (200, 8)             0           lambda_63[0][0]                  
                                                                 lambda_65[0][0]                  
__________________________________________________________________________________________________
concatenate_46 (Concatenate)    (200, 8)             0           lambda_64[0][0]                  
                                                                 lambda_66[0][0]                  
__________________________________________________________________________________________________
concatenate_47 (Concatenate)    (200, 8)             0           lambda_67[0][0]                  
                                                                 lambda_69[0][0]                  
__________________________________________________________________________________________________
concatenate_48 (Concatenate)    (200, 8)             0           lambda_68[0][0]                  
                                                                 lambda_70[0][0]                  
__________________________________________________________________________________________________
concatenate_49 (Concatenate)    (200, 8)             0           lambda_71[0][0]                  
                                                                 lambda_73[0][0]                  
__________________________________________________________________________________________________
concatenate_50 (Concatenate)    (200, 8)             0           lambda_72[0][0]                  
                                                                 lambda_74[0][0]                  
__________________________________________________________________________________________________
concatenate_51 (Concatenate)    (200, 8)             0           lambda_75[0][0]                  
                                                                 lambda_77[0][0]                  
__________________________________________________________________________________________________
concatenate_52 (Concatenate)    (200, 8)             0           lambda_76[0][0]                  
                                                                 lambda_78[0][0]                  
__________________________________________________________________________________________________
concatenate_53 (Concatenate)    (200, 8)             0           lambda_79[0][0]                  
                                                                 lambda_81[0][0]                  
__________________________________________________________________________________________________
concatenate_54 (Concatenate)    (200, 8)             0           lambda_80[0][0]                  
                                                                 lambda_82[0][0]                  
__________________________________________________________________________________________________
concatenate_55 (Concatenate)    (200, 8)             0           lambda_83[0][0]                  
                                                                 lambda_85[0][0]                  
__________________________________________________________________________________________________
concatenate_56 (Concatenate)    (200, 8)             0           lambda_84[0][0]                  
                                                                 lambda_86[0][0]                  
__________________________________________________________________________________________________
concatenate_57 (Concatenate)    (200, 8)             0           lambda_87[0][0]                  
                                                                 lambda_89[0][0]                  
__________________________________________________________________________________________________
concatenate_58 (Concatenate)    (200, 8)             0           lambda_88[0][0]                  
                                                                 lambda_90[0][0]                  
__________________________________________________________________________________________________
concatenate_59 (Concatenate)    (200, 8)             0           lambda_91[0][0]                  
                                                                 lambda_93[0][0]                  
__________________________________________________________________________________________________
concatenate_60 (Concatenate)    (200, 8)             0           lambda_92[0][0]                  
                                                                 lambda_94[0][0]                  
__________________________________________________________________________________________________
concatenate_61 (Concatenate)    (200, 8)             0           lambda_95[0][0]                  
                                                                 lambda_97[0][0]                  
__________________________________________________________________________________________________
concatenate_62 (Concatenate)    (200, 8)             0           lambda_96[0][0]                  
                                                                 lambda_98[0][0]                  
__________________________________________________________________________________________________
concatenate_63 (Concatenate)    (200, 8)             0           lambda_99[0][0]                  
                                                                 lambda_101[0][0]                 
__________________________________________________________________________________________________
concatenate_64 (Concatenate)    (200, 8)             0           lambda_100[0][0]                 
                                                                 lambda_102[0][0]                 
__________________________________________________________________________________________________
concatenate_65 (Concatenate)    (200, 8)             0           lambda_103[0][0]                 
                                                                 lambda_105[0][0]                 
__________________________________________________________________________________________________
concatenate_66 (Concatenate)    (200, 8)             0           lambda_104[0][0]                 
                                                                 lambda_106[0][0]                 
__________________________________________________________________________________________________
concatenate_67 (Concatenate)    (200, 8)             0           lambda_107[0][0]                 
                                                                 lambda_109[0][0]                 
__________________________________________________________________________________________________
concatenate_68 (Concatenate)    (200, 8)             0           lambda_108[0][0]                 
                                                                 lambda_110[0][0]                 
__________________________________________________________________________________________________
dense_53 (Dense)                (200, 5)             40          concatenate_37[0][0]             
                                                                 concatenate_38[0][0]             
__________________________________________________________________________________________________
dense_54 (Dense)                (200, 5)             40          concatenate_38[0][0]             
                                                                 concatenate_37[0][0]             
__________________________________________________________________________________________________
dense_55 (Dense)                (200, 5)             40          concatenate_39[0][0]             
                                                                 concatenate_40[0][0]             
__________________________________________________________________________________________________
dense_56 (Dense)                (200, 5)             40          concatenate_40[0][0]             
                                                                 concatenate_39[0][0]             
__________________________________________________________________________________________________
dense_57 (Dense)                (200, 5)             40          concatenate_41[0][0]             
                                                                 concatenate_42[0][0]             
__________________________________________________________________________________________________
dense_58 (Dense)                (200, 5)             40          concatenate_42[0][0]             
                                                                 concatenate_41[0][0]             
__________________________________________________________________________________________________
dense_59 (Dense)                (200, 5)             40          concatenate_43[0][0]             
                                                                 concatenate_44[0][0]             
__________________________________________________________________________________________________
dense_60 (Dense)                (200, 5)             40          concatenate_44[0][0]             
                                                                 concatenate_43[0][0]             
__________________________________________________________________________________________________
dense_61 (Dense)                (200, 5)             40          concatenate_45[0][0]             
                                                                 concatenate_46[0][0]             
__________________________________________________________________________________________________
dense_62 (Dense)                (200, 5)             40          concatenate_46[0][0]             
                                                                 concatenate_45[0][0]             
__________________________________________________________________________________________________
dense_63 (Dense)                (200, 5)             40          concatenate_47[0][0]             
                                                                 concatenate_48[0][0]             
__________________________________________________________________________________________________
dense_64 (Dense)                (200, 5)             40          concatenate_48[0][0]             
                                                                 concatenate_47[0][0]             
__________________________________________________________________________________________________
dense_65 (Dense)                (200, 5)             40          concatenate_49[0][0]             
                                                                 concatenate_50[0][0]             
__________________________________________________________________________________________________
dense_66 (Dense)                (200, 5)             40          concatenate_50[0][0]             
                                                                 concatenate_49[0][0]             
__________________________________________________________________________________________________
dense_67 (Dense)                (200, 5)             40          concatenate_51[0][0]             
                                                                 concatenate_52[0][0]             
__________________________________________________________________________________________________
dense_68 (Dense)                (200, 5)             40          concatenate_52[0][0]             
                                                                 concatenate_51[0][0]             
__________________________________________________________________________________________________
dense_69 (Dense)                (200, 5)             40          concatenate_53[0][0]             
                                                                 concatenate_54[0][0]             
__________________________________________________________________________________________________
dense_70 (Dense)                (200, 5)             40          concatenate_54[0][0]             
                                                                 concatenate_53[0][0]             
__________________________________________________________________________________________________
dense_71 (Dense)                (200, 5)             40          concatenate_55[0][0]             
                                                                 concatenate_56[0][0]             
__________________________________________________________________________________________________
dense_72 (Dense)                (200, 5)             40          concatenate_56[0][0]             
                                                                 concatenate_55[0][0]             
__________________________________________________________________________________________________
dense_73 (Dense)                (200, 5)             40          concatenate_57[0][0]             
                                                                 concatenate_58[0][0]             
__________________________________________________________________________________________________
dense_74 (Dense)                (200, 5)             40          concatenate_58[0][0]             
                                                                 concatenate_57[0][0]             
__________________________________________________________________________________________________
dense_75 (Dense)                (200, 5)             40          concatenate_59[0][0]             
                                                                 concatenate_60[0][0]             
__________________________________________________________________________________________________
dense_76 (Dense)                (200, 5)             40          concatenate_60[0][0]             
                                                                 concatenate_59[0][0]             
__________________________________________________________________________________________________
dense_77 (Dense)                (200, 5)             40          concatenate_61[0][0]             
                                                                 concatenate_62[0][0]             
__________________________________________________________________________________________________
dense_78 (Dense)                (200, 5)             40          concatenate_62[0][0]             
                                                                 concatenate_61[0][0]             
__________________________________________________________________________________________________
dense_79 (Dense)                (200, 5)             40          concatenate_63[0][0]             
                                                                 concatenate_64[0][0]             
__________________________________________________________________________________________________
dense_80 (Dense)                (200, 5)             40          concatenate_64[0][0]             
                                                                 concatenate_63[0][0]             
__________________________________________________________________________________________________
dense_81 (Dense)                (200, 5)             40          concatenate_65[0][0]             
                                                                 concatenate_66[0][0]             
__________________________________________________________________________________________________
dense_82 (Dense)                (200, 5)             40          concatenate_66[0][0]             
                                                                 concatenate_65[0][0]             
__________________________________________________________________________________________________
dense_83 (Dense)                (200, 5)             40          concatenate_67[0][0]             
                                                                 concatenate_68[0][0]             
__________________________________________________________________________________________________
dense_84 (Dense)                (200, 5)             40          concatenate_68[0][0]             
                                                                 concatenate_67[0][0]             
__________________________________________________________________________________________________
subtract_33 (Subtract)          (200, 5)             0           dense_53[0][0]                   
                                                                 dense_54[0][0]                   
__________________________________________________________________________________________________
subtract_34 (Subtract)          (200, 5)             0           dense_55[0][0]                   
                                                                 dense_56[0][0]                   
__________________________________________________________________________________________________
add_35 (Add)                    (200, 5)             0           dense_53[1][0]                   
                                                                 dense_54[1][0]                   
__________________________________________________________________________________________________
add_36 (Add)                    (200, 5)             0           dense_55[1][0]                   
                                                                 dense_56[1][0]                   
__________________________________________________________________________________________________
subtract_35 (Subtract)          (200, 5)             0           dense_57[0][0]                   
                                                                 dense_58[0][0]                   
__________________________________________________________________________________________________
subtract_36 (Subtract)          (200, 5)             0           dense_59[0][0]                   
                                                                 dense_60[0][0]                   
__________________________________________________________________________________________________
add_37 (Add)                    (200, 5)             0           dense_57[1][0]                   
                                                                 dense_58[1][0]                   
__________________________________________________________________________________________________
add_38 (Add)                    (200, 5)             0           dense_59[1][0]                   
                                                                 dense_60[1][0]                   
__________________________________________________________________________________________________
subtract_37 (Subtract)          (200, 5)             0           dense_61[0][0]                   
                                                                 dense_62[0][0]                   
__________________________________________________________________________________________________
subtract_38 (Subtract)          (200, 5)             0           dense_63[0][0]                   
                                                                 dense_64[0][0]                   
__________________________________________________________________________________________________
add_39 (Add)                    (200, 5)             0           dense_61[1][0]                   
                                                                 dense_62[1][0]                   
__________________________________________________________________________________________________
add_40 (Add)                    (200, 5)             0           dense_63[1][0]                   
                                                                 dense_64[1][0]                   
__________________________________________________________________________________________________
subtract_39 (Subtract)          (200, 5)             0           dense_65[0][0]                   
                                                                 dense_66[0][0]                   
__________________________________________________________________________________________________
subtract_40 (Subtract)          (200, 5)             0           dense_67[0][0]                   
                                                                 dense_68[0][0]                   
__________________________________________________________________________________________________
add_41 (Add)                    (200, 5)             0           dense_65[1][0]                   
                                                                 dense_66[1][0]                   
__________________________________________________________________________________________________
add_42 (Add)                    (200, 5)             0           dense_67[1][0]                   
                                                                 dense_68[1][0]                   
__________________________________________________________________________________________________
subtract_41 (Subtract)          (200, 5)             0           dense_69[0][0]                   
                                                                 dense_70[0][0]                   
__________________________________________________________________________________________________
subtract_42 (Subtract)          (200, 5)             0           dense_71[0][0]                   
                                                                 dense_72[0][0]                   
__________________________________________________________________________________________________
add_43 (Add)                    (200, 5)             0           dense_69[1][0]                   
                                                                 dense_70[1][0]                   
__________________________________________________________________________________________________
add_44 (Add)                    (200, 5)             0           dense_71[1][0]                   
                                                                 dense_72[1][0]                   
__________________________________________________________________________________________________
subtract_43 (Subtract)          (200, 5)             0           dense_73[0][0]                   
                                                                 dense_74[0][0]                   
__________________________________________________________________________________________________
subtract_44 (Subtract)          (200, 5)             0           dense_75[0][0]                   
                                                                 dense_76[0][0]                   
__________________________________________________________________________________________________
add_45 (Add)                    (200, 5)             0           dense_73[1][0]                   
                                                                 dense_74[1][0]                   
__________________________________________________________________________________________________
add_46 (Add)                    (200, 5)             0           dense_75[1][0]                   
                                                                 dense_76[1][0]                   
__________________________________________________________________________________________________
subtract_45 (Subtract)          (200, 5)             0           dense_77[0][0]                   
                                                                 dense_78[0][0]                   
__________________________________________________________________________________________________
subtract_46 (Subtract)          (200, 5)             0           dense_79[0][0]                   
                                                                 dense_80[0][0]                   
__________________________________________________________________________________________________
add_47 (Add)                    (200, 5)             0           dense_77[1][0]                   
                                                                 dense_78[1][0]                   
__________________________________________________________________________________________________
add_48 (Add)                    (200, 5)             0           dense_79[1][0]                   
                                                                 dense_80[1][0]                   
__________________________________________________________________________________________________
subtract_47 (Subtract)          (200, 5)             0           dense_81[0][0]                   
                                                                 dense_82[0][0]                   
__________________________________________________________________________________________________
subtract_48 (Subtract)          (200, 5)             0           dense_83[0][0]                   
                                                                 dense_84[0][0]                   
__________________________________________________________________________________________________
add_49 (Add)                    (200, 5)             0           dense_81[1][0]                   
                                                                 dense_82[1][0]                   
__________________________________________________________________________________________________
add_50 (Add)                    (200, 5)             0           dense_83[1][0]                   
                                                                 dense_84[1][0]                   
__________________________________________________________________________________________________
concatenate_101 (Concatenate)   (200, 10)            0           subtract_33[0][0]                
                                                                 subtract_34[0][0]                
__________________________________________________________________________________________________
concatenate_102 (Concatenate)   (200, 10)            0           add_35[0][0]                     
                                                                 add_36[0][0]                     
__________________________________________________________________________________________________
concatenate_103 (Concatenate)   (200, 10)            0           subtract_35[0][0]                
                                                                 subtract_36[0][0]                
__________________________________________________________________________________________________
concatenate_104 (Concatenate)   (200, 10)            0           add_37[0][0]                     
                                                                 add_38[0][0]                     
__________________________________________________________________________________________________
concatenate_105 (Concatenate)   (200, 10)            0           subtract_37[0][0]                
                                                                 subtract_38[0][0]                
__________________________________________________________________________________________________
concatenate_106 (Concatenate)   (200, 10)            0           add_39[0][0]                     
                                                                 add_40[0][0]                     
__________________________________________________________________________________________________
concatenate_107 (Concatenate)   (200, 10)            0           subtract_39[0][0]                
                                                                 subtract_40[0][0]                
__________________________________________________________________________________________________
concatenate_108 (Concatenate)   (200, 10)            0           add_41[0][0]                     
                                                                 add_42[0][0]                     
__________________________________________________________________________________________________
concatenate_117 (Concatenate)   (200, 10)            0           subtract_41[0][0]                
                                                                 subtract_42[0][0]                
__________________________________________________________________________________________________
concatenate_118 (Concatenate)   (200, 10)            0           add_43[0][0]                     
                                                                 add_44[0][0]                     
__________________________________________________________________________________________________
concatenate_119 (Concatenate)   (200, 10)            0           subtract_43[0][0]                
                                                                 subtract_44[0][0]                
__________________________________________________________________________________________________
concatenate_120 (Concatenate)   (200, 10)            0           add_45[0][0]                     
                                                                 add_46[0][0]                     
__________________________________________________________________________________________________
concatenate_121 (Concatenate)   (200, 10)            0           subtract_45[0][0]                
                                                                 subtract_46[0][0]                
__________________________________________________________________________________________________
concatenate_122 (Concatenate)   (200, 10)            0           add_47[0][0]                     
                                                                 add_48[0][0]                     
__________________________________________________________________________________________________
concatenate_123 (Concatenate)   (200, 10)            0           subtract_47[0][0]                
                                                                 subtract_48[0][0]                
__________________________________________________________________________________________________
concatenate_124 (Concatenate)   (200, 10)            0           add_49[0][0]                     
                                                                 add_50[0][0]                     
__________________________________________________________________________________________________
dense_117 (Dense)               (200, 5)             50          concatenate_101[0][0]            
                                                                 concatenate_102[0][0]            
__________________________________________________________________________________________________
dense_118 (Dense)               (200, 5)             50          concatenate_102[0][0]            
                                                                 concatenate_101[0][0]            
__________________________________________________________________________________________________
dense_119 (Dense)               (200, 5)             50          concatenate_103[0][0]            
                                                                 concatenate_104[0][0]            
__________________________________________________________________________________________________
dense_120 (Dense)               (200, 5)             50          concatenate_104[0][0]            
                                                                 concatenate_103[0][0]            
__________________________________________________________________________________________________
dense_121 (Dense)               (200, 5)             50          concatenate_105[0][0]            
                                                                 concatenate_106[0][0]            
__________________________________________________________________________________________________
dense_122 (Dense)               (200, 5)             50          concatenate_106[0][0]            
                                                                 concatenate_105[0][0]            
__________________________________________________________________________________________________
dense_123 (Dense)               (200, 5)             50          concatenate_107[0][0]            
                                                                 concatenate_108[0][0]            
__________________________________________________________________________________________________
dense_124 (Dense)               (200, 5)             50          concatenate_108[0][0]            
                                                                 concatenate_107[0][0]            
__________________________________________________________________________________________________
dense_133 (Dense)               (200, 5)             50          concatenate_117[0][0]            
                                                                 concatenate_118[0][0]            
__________________________________________________________________________________________________
dense_134 (Dense)               (200, 5)             50          concatenate_118[0][0]            
                                                                 concatenate_117[0][0]            
__________________________________________________________________________________________________
dense_135 (Dense)               (200, 5)             50          concatenate_119[0][0]            
                                                                 concatenate_120[0][0]            
__________________________________________________________________________________________________
dense_136 (Dense)               (200, 5)             50          concatenate_120[0][0]            
                                                                 concatenate_119[0][0]            
__________________________________________________________________________________________________
dense_137 (Dense)               (200, 5)             50          concatenate_121[0][0]            
                                                                 concatenate_122[0][0]            
__________________________________________________________________________________________________
dense_138 (Dense)               (200, 5)             50          concatenate_122[0][0]            
                                                                 concatenate_121[0][0]            
__________________________________________________________________________________________________
dense_139 (Dense)               (200, 5)             50          concatenate_123[0][0]            
                                                                 concatenate_124[0][0]            
__________________________________________________________________________________________________
dense_140 (Dense)               (200, 5)             50          concatenate_124[0][0]            
                                                                 concatenate_123[0][0]            
__________________________________________________________________________________________________
subtract_65 (Subtract)          (200, 5)             0           dense_117[0][0]                  
                                                                 dense_118[0][0]                  
__________________________________________________________________________________________________
subtract_66 (Subtract)          (200, 5)             0           dense_119[0][0]                  
                                                                 dense_120[0][0]                  
__________________________________________________________________________________________________
add_67 (Add)                    (200, 5)             0           dense_117[1][0]                  
                                                                 dense_118[1][0]                  
__________________________________________________________________________________________________
add_68 (Add)                    (200, 5)             0           dense_119[1][0]                  
                                                                 dense_120[1][0]                  
__________________________________________________________________________________________________
subtract_67 (Subtract)          (200, 5)             0           dense_121[0][0]                  
                                                                 dense_122[0][0]                  
__________________________________________________________________________________________________
subtract_68 (Subtract)          (200, 5)             0           dense_123[0][0]                  
                                                                 dense_124[0][0]                  
__________________________________________________________________________________________________
add_69 (Add)                    (200, 5)             0           dense_121[1][0]                  
                                                                 dense_122[1][0]                  
__________________________________________________________________________________________________
add_70 (Add)                    (200, 5)             0           dense_123[1][0]                  
                                                                 dense_124[1][0]                  
__________________________________________________________________________________________________
subtract_73 (Subtract)          (200, 5)             0           dense_133[0][0]                  
                                                                 dense_134[0][0]                  
__________________________________________________________________________________________________
subtract_74 (Subtract)          (200, 5)             0           dense_135[0][0]                  
                                                                 dense_136[0][0]                  
__________________________________________________________________________________________________
add_75 (Add)                    (200, 5)             0           dense_133[1][0]                  
                                                                 dense_134[1][0]                  
__________________________________________________________________________________________________
add_76 (Add)                    (200, 5)             0           dense_135[1][0]                  
                                                                 dense_136[1][0]                  
__________________________________________________________________________________________________
subtract_75 (Subtract)          (200, 5)             0           dense_137[0][0]                  
                                                                 dense_138[0][0]                  
__________________________________________________________________________________________________
subtract_76 (Subtract)          (200, 5)             0           dense_139[0][0]                  
                                                                 dense_140[0][0]                  
__________________________________________________________________________________________________
add_77 (Add)                    (200, 5)             0           dense_137[1][0]                  
                                                                 dense_138[1][0]                  
__________________________________________________________________________________________________
add_78 (Add)                    (200, 5)             0           dense_139[1][0]                  
                                                                 dense_140[1][0]                  
__________________________________________________________________________________________________
concatenate_165 (Concatenate)   (200, 10)            0           subtract_65[0][0]                
                                                                 subtract_66[0][0]                
__________________________________________________________________________________________________
concatenate_166 (Concatenate)   (200, 10)            0           add_67[0][0]                     
                                                                 add_68[0][0]                     
__________________________________________________________________________________________________
concatenate_169 (Concatenate)   (200, 10)            0           subtract_67[0][0]                
                                                                 subtract_68[0][0]                
__________________________________________________________________________________________________
concatenate_170 (Concatenate)   (200, 10)            0           add_69[0][0]                     
                                                                 add_70[0][0]                     
__________________________________________________________________________________________________
concatenate_181 (Concatenate)   (200, 10)            0           subtract_73[0][0]                
                                                                 subtract_74[0][0]                
__________________________________________________________________________________________________
concatenate_182 (Concatenate)   (200, 10)            0           add_75[0][0]                     
                                                                 add_76[0][0]                     
__________________________________________________________________________________________________
concatenate_185 (Concatenate)   (200, 10)            0           subtract_75[0][0]                
                                                                 subtract_76[0][0]                
__________________________________________________________________________________________________
concatenate_186 (Concatenate)   (200, 10)            0           add_77[0][0]                     
                                                                 add_78[0][0]                     
__________________________________________________________________________________________________
concatenate_109 (Concatenate)   (200, 10)            0           subtract_33[0][0]                
                                                                 subtract_34[0][0]                
__________________________________________________________________________________________________
concatenate_110 (Concatenate)   (200, 10)            0           add_35[0][0]                     
                                                                 add_36[0][0]                     
__________________________________________________________________________________________________
concatenate_111 (Concatenate)   (200, 10)            0           subtract_35[0][0]                
                                                                 subtract_36[0][0]                
__________________________________________________________________________________________________
concatenate_112 (Concatenate)   (200, 10)            0           add_37[0][0]                     
                                                                 add_38[0][0]                     
__________________________________________________________________________________________________
concatenate_113 (Concatenate)   (200, 10)            0           subtract_37[0][0]                
                                                                 subtract_38[0][0]                
__________________________________________________________________________________________________
concatenate_114 (Concatenate)   (200, 10)            0           add_39[0][0]                     
                                                                 add_40[0][0]                     
__________________________________________________________________________________________________
concatenate_115 (Concatenate)   (200, 10)            0           subtract_39[0][0]                
                                                                 subtract_40[0][0]                
__________________________________________________________________________________________________
concatenate_116 (Concatenate)   (200, 10)            0           add_41[0][0]                     
                                                                 add_42[0][0]                     
__________________________________________________________________________________________________
concatenate_125 (Concatenate)   (200, 10)            0           subtract_41[0][0]                
                                                                 subtract_42[0][0]                
__________________________________________________________________________________________________
concatenate_126 (Concatenate)   (200, 10)            0           add_43[0][0]                     
                                                                 add_44[0][0]                     
__________________________________________________________________________________________________
concatenate_127 (Concatenate)   (200, 10)            0           subtract_43[0][0]                
                                                                 subtract_44[0][0]                
__________________________________________________________________________________________________
concatenate_128 (Concatenate)   (200, 10)            0           add_45[0][0]                     
                                                                 add_46[0][0]                     
__________________________________________________________________________________________________
concatenate_129 (Concatenate)   (200, 10)            0           subtract_45[0][0]                
                                                                 subtract_46[0][0]                
__________________________________________________________________________________________________
concatenate_130 (Concatenate)   (200, 10)            0           add_47[0][0]                     
                                                                 add_48[0][0]                     
__________________________________________________________________________________________________
concatenate_131 (Concatenate)   (200, 10)            0           subtract_47[0][0]                
                                                                 subtract_48[0][0]                
__________________________________________________________________________________________________
concatenate_132 (Concatenate)   (200, 10)            0           add_49[0][0]                     
                                                                 add_50[0][0]                     
__________________________________________________________________________________________________
dense_181 (Dense)               (200, 10)            100         concatenate_165[0][0]            
                                                                 concatenate_166[0][0]            
__________________________________________________________________________________________________
dense_182 (Dense)               (200, 10)            100         concatenate_166[0][0]            
                                                                 concatenate_165[0][0]            
__________________________________________________________________________________________________
dense_185 (Dense)               (200, 10)            100         concatenate_169[0][0]            
                                                                 concatenate_170[0][0]            
__________________________________________________________________________________________________
dense_186 (Dense)               (200, 10)            100         concatenate_170[0][0]            
                                                                 concatenate_169[0][0]            
__________________________________________________________________________________________________
dense_197 (Dense)               (200, 10)            100         concatenate_181[0][0]            
                                                                 concatenate_182[0][0]            
__________________________________________________________________________________________________
dense_198 (Dense)               (200, 10)            100         concatenate_182[0][0]            
                                                                 concatenate_181[0][0]            
__________________________________________________________________________________________________
dense_201 (Dense)               (200, 10)            100         concatenate_185[0][0]            
                                                                 concatenate_186[0][0]            
__________________________________________________________________________________________________
dense_202 (Dense)               (200, 10)            100         concatenate_186[0][0]            
                                                                 concatenate_185[0][0]            
__________________________________________________________________________________________________
dense_125 (Dense)               (200, 5)             50          concatenate_109[0][0]            
                                                                 concatenate_110[0][0]            
__________________________________________________________________________________________________
dense_126 (Dense)               (200, 5)             50          concatenate_110[0][0]            
                                                                 concatenate_109[0][0]            
__________________________________________________________________________________________________
dense_127 (Dense)               (200, 5)             50          concatenate_111[0][0]            
                                                                 concatenate_112[0][0]            
__________________________________________________________________________________________________
dense_128 (Dense)               (200, 5)             50          concatenate_112[0][0]            
                                                                 concatenate_111[0][0]            
__________________________________________________________________________________________________
dense_129 (Dense)               (200, 5)             50          concatenate_113[0][0]            
                                                                 concatenate_114[0][0]            
__________________________________________________________________________________________________
dense_130 (Dense)               (200, 5)             50          concatenate_114[0][0]            
                                                                 concatenate_113[0][0]            
__________________________________________________________________________________________________
dense_131 (Dense)               (200, 5)             50          concatenate_115[0][0]            
                                                                 concatenate_116[0][0]            
__________________________________________________________________________________________________
dense_132 (Dense)               (200, 5)             50          concatenate_116[0][0]            
                                                                 concatenate_115[0][0]            
__________________________________________________________________________________________________
dense_141 (Dense)               (200, 5)             50          concatenate_125[0][0]            
                                                                 concatenate_126[0][0]            
__________________________________________________________________________________________________
dense_142 (Dense)               (200, 5)             50          concatenate_126[0][0]            
                                                                 concatenate_125[0][0]            
__________________________________________________________________________________________________
dense_143 (Dense)               (200, 5)             50          concatenate_127[0][0]            
                                                                 concatenate_128[0][0]            
__________________________________________________________________________________________________
dense_144 (Dense)               (200, 5)             50          concatenate_128[0][0]            
                                                                 concatenate_127[0][0]            
__________________________________________________________________________________________________
dense_145 (Dense)               (200, 5)             50          concatenate_129[0][0]            
                                                                 concatenate_130[0][0]            
__________________________________________________________________________________________________
dense_146 (Dense)               (200, 5)             50          concatenate_130[0][0]            
                                                                 concatenate_129[0][0]            
__________________________________________________________________________________________________
dense_147 (Dense)               (200, 5)             50          concatenate_131[0][0]            
                                                                 concatenate_132[0][0]            
__________________________________________________________________________________________________
dense_148 (Dense)               (200, 5)             50          concatenate_132[0][0]            
                                                                 concatenate_131[0][0]            
__________________________________________________________________________________________________
concatenate_69 (Concatenate)    (200, 8)             0           lambda_47[0][0]                  
                                                                 lambda_49[0][0]                  
__________________________________________________________________________________________________
concatenate_70 (Concatenate)    (200, 8)             0           lambda_48[0][0]                  
                                                                 lambda_50[0][0]                  
__________________________________________________________________________________________________
concatenate_71 (Concatenate)    (200, 8)             0           lambda_51[0][0]                  
                                                                 lambda_53[0][0]                  
__________________________________________________________________________________________________
concatenate_72 (Concatenate)    (200, 8)             0           lambda_52[0][0]                  
                                                                 lambda_54[0][0]                  
__________________________________________________________________________________________________
concatenate_73 (Concatenate)    (200, 8)             0           lambda_55[0][0]                  
                                                                 lambda_57[0][0]                  
__________________________________________________________________________________________________
concatenate_74 (Concatenate)    (200, 8)             0           lambda_56[0][0]                  
                                                                 lambda_58[0][0]                  
__________________________________________________________________________________________________
concatenate_75 (Concatenate)    (200, 8)             0           lambda_59[0][0]                  
                                                                 lambda_61[0][0]                  
__________________________________________________________________________________________________
concatenate_76 (Concatenate)    (200, 8)             0           lambda_60[0][0]                  
                                                                 lambda_62[0][0]                  
__________________________________________________________________________________________________
concatenate_77 (Concatenate)    (200, 8)             0           lambda_63[0][0]                  
                                                                 lambda_65[0][0]                  
__________________________________________________________________________________________________
concatenate_78 (Concatenate)    (200, 8)             0           lambda_64[0][0]                  
                                                                 lambda_66[0][0]                  
__________________________________________________________________________________________________
concatenate_79 (Concatenate)    (200, 8)             0           lambda_67[0][0]                  
                                                                 lambda_69[0][0]                  
__________________________________________________________________________________________________
concatenate_80 (Concatenate)    (200, 8)             0           lambda_68[0][0]                  
                                                                 lambda_70[0][0]                  
__________________________________________________________________________________________________
concatenate_81 (Concatenate)    (200, 8)             0           lambda_71[0][0]                  
                                                                 lambda_73[0][0]                  
__________________________________________________________________________________________________
concatenate_82 (Concatenate)    (200, 8)             0           lambda_72[0][0]                  
                                                                 lambda_74[0][0]                  
__________________________________________________________________________________________________
concatenate_83 (Concatenate)    (200, 8)             0           lambda_75[0][0]                  
                                                                 lambda_77[0][0]                  
__________________________________________________________________________________________________
concatenate_84 (Concatenate)    (200, 8)             0           lambda_76[0][0]                  
                                                                 lambda_78[0][0]                  
__________________________________________________________________________________________________
concatenate_85 (Concatenate)    (200, 8)             0           lambda_79[0][0]                  
                                                                 lambda_81[0][0]                  
__________________________________________________________________________________________________
concatenate_86 (Concatenate)    (200, 8)             0           lambda_80[0][0]                  
                                                                 lambda_82[0][0]                  
__________________________________________________________________________________________________
concatenate_87 (Concatenate)    (200, 8)             0           lambda_83[0][0]                  
                                                                 lambda_85[0][0]                  
__________________________________________________________________________________________________
concatenate_88 (Concatenate)    (200, 8)             0           lambda_84[0][0]                  
                                                                 lambda_86[0][0]                  
__________________________________________________________________________________________________
concatenate_89 (Concatenate)    (200, 8)             0           lambda_87[0][0]                  
                                                                 lambda_89[0][0]                  
__________________________________________________________________________________________________
concatenate_90 (Concatenate)    (200, 8)             0           lambda_88[0][0]                  
                                                                 lambda_90[0][0]                  
__________________________________________________________________________________________________
concatenate_91 (Concatenate)    (200, 8)             0           lambda_91[0][0]                  
                                                                 lambda_93[0][0]                  
__________________________________________________________________________________________________
concatenate_92 (Concatenate)    (200, 8)             0           lambda_92[0][0]                  
                                                                 lambda_94[0][0]                  
__________________________________________________________________________________________________
concatenate_93 (Concatenate)    (200, 8)             0           lambda_95[0][0]                  
                                                                 lambda_97[0][0]                  
__________________________________________________________________________________________________
concatenate_94 (Concatenate)    (200, 8)             0           lambda_96[0][0]                  
                                                                 lambda_98[0][0]                  
__________________________________________________________________________________________________
concatenate_95 (Concatenate)    (200, 8)             0           lambda_99[0][0]                  
                                                                 lambda_101[0][0]                 
__________________________________________________________________________________________________
concatenate_96 (Concatenate)    (200, 8)             0           lambda_100[0][0]                 
                                                                 lambda_102[0][0]                 
__________________________________________________________________________________________________
concatenate_97 (Concatenate)    (200, 8)             0           lambda_103[0][0]                 
                                                                 lambda_105[0][0]                 
__________________________________________________________________________________________________
concatenate_98 (Concatenate)    (200, 8)             0           lambda_104[0][0]                 
                                                                 lambda_106[0][0]                 
__________________________________________________________________________________________________
concatenate_99 (Concatenate)    (200, 8)             0           lambda_107[0][0]                 
                                                                 lambda_109[0][0]                 
__________________________________________________________________________________________________
concatenate_100 (Concatenate)   (200, 8)             0           lambda_108[0][0]                 
                                                                 lambda_110[0][0]                 
__________________________________________________________________________________________________
subtract_97 (Subtract)          (200, 10)            0           dense_181[0][0]                  
                                                                 dense_182[0][0]                  
__________________________________________________________________________________________________
add_99 (Add)                    (200, 10)            0           dense_181[1][0]                  
                                                                 dense_182[1][0]                  
__________________________________________________________________________________________________
subtract_99 (Subtract)          (200, 10)            0           dense_185[0][0]                  
                                                                 dense_186[0][0]                  
__________________________________________________________________________________________________
add_101 (Add)                   (200, 10)            0           dense_185[1][0]                  
                                                                 dense_186[1][0]                  
__________________________________________________________________________________________________
subtract_105 (Subtract)         (200, 10)            0           dense_197[0][0]                  
                                                                 dense_198[0][0]                  
__________________________________________________________________________________________________
add_107 (Add)                   (200, 10)            0           dense_197[1][0]                  
                                                                 dense_198[1][0]                  
__________________________________________________________________________________________________
subtract_107 (Subtract)         (200, 10)            0           dense_201[0][0]                  
                                                                 dense_202[0][0]                  
__________________________________________________________________________________________________
add_109 (Add)                   (200, 10)            0           dense_201[1][0]                  
                                                                 dense_202[1][0]                  
__________________________________________________________________________________________________
subtract_69 (Subtract)          (200, 5)             0           dense_125[0][0]                  
                                                                 dense_126[0][0]                  
__________________________________________________________________________________________________
subtract_70 (Subtract)          (200, 5)             0           dense_127[0][0]                  
                                                                 dense_128[0][0]                  
__________________________________________________________________________________________________
add_71 (Add)                    (200, 5)             0           dense_125[1][0]                  
                                                                 dense_126[1][0]                  
__________________________________________________________________________________________________
add_72 (Add)                    (200, 5)             0           dense_127[1][0]                  
                                                                 dense_128[1][0]                  
__________________________________________________________________________________________________
subtract_71 (Subtract)          (200, 5)             0           dense_129[0][0]                  
                                                                 dense_130[0][0]                  
__________________________________________________________________________________________________
subtract_72 (Subtract)          (200, 5)             0           dense_131[0][0]                  
                                                                 dense_132[0][0]                  
__________________________________________________________________________________________________
add_73 (Add)                    (200, 5)             0           dense_129[1][0]                  
                                                                 dense_130[1][0]                  
__________________________________________________________________________________________________
add_74 (Add)                    (200, 5)             0           dense_131[1][0]                  
                                                                 dense_132[1][0]                  
__________________________________________________________________________________________________
subtract_77 (Subtract)          (200, 5)             0           dense_141[0][0]                  
                                                                 dense_142[0][0]                  
__________________________________________________________________________________________________
subtract_78 (Subtract)          (200, 5)             0           dense_143[0][0]                  
                                                                 dense_144[0][0]                  
__________________________________________________________________________________________________
add_79 (Add)                    (200, 5)             0           dense_141[1][0]                  
                                                                 dense_142[1][0]                  
__________________________________________________________________________________________________
add_80 (Add)                    (200, 5)             0           dense_143[1][0]                  
                                                                 dense_144[1][0]                  
__________________________________________________________________________________________________
subtract_79 (Subtract)          (200, 5)             0           dense_145[0][0]                  
                                                                 dense_146[0][0]                  
__________________________________________________________________________________________________
subtract_80 (Subtract)          (200, 5)             0           dense_147[0][0]                  
                                                                 dense_148[0][0]                  
__________________________________________________________________________________________________
add_81 (Add)                    (200, 5)             0           dense_145[1][0]                  
                                                                 dense_146[1][0]                  
__________________________________________________________________________________________________
add_82 (Add)                    (200, 5)             0           dense_147[1][0]                  
                                                                 dense_148[1][0]                  
__________________________________________________________________________________________________
dense_85 (Dense)                (200, 5)             40          concatenate_69[0][0]             
                                                                 concatenate_70[0][0]             
__________________________________________________________________________________________________
dense_86 (Dense)                (200, 5)             40          concatenate_70[0][0]             
                                                                 concatenate_69[0][0]             
__________________________________________________________________________________________________
dense_87 (Dense)                (200, 5)             40          concatenate_71[0][0]             
                                                                 concatenate_72[0][0]             
__________________________________________________________________________________________________
dense_88 (Dense)                (200, 5)             40          concatenate_72[0][0]             
                                                                 concatenate_71[0][0]             
__________________________________________________________________________________________________
dense_89 (Dense)                (200, 5)             40          concatenate_73[0][0]             
                                                                 concatenate_74[0][0]             
__________________________________________________________________________________________________
dense_90 (Dense)                (200, 5)             40          concatenate_74[0][0]             
                                                                 concatenate_73[0][0]             
__________________________________________________________________________________________________
dense_91 (Dense)                (200, 5)             40          concatenate_75[0][0]             
                                                                 concatenate_76[0][0]             
__________________________________________________________________________________________________
dense_92 (Dense)                (200, 5)             40          concatenate_76[0][0]             
                                                                 concatenate_75[0][0]             
__________________________________________________________________________________________________
dense_93 (Dense)                (200, 5)             40          concatenate_77[0][0]             
                                                                 concatenate_78[0][0]             
__________________________________________________________________________________________________
dense_94 (Dense)                (200, 5)             40          concatenate_78[0][0]             
                                                                 concatenate_77[0][0]             
__________________________________________________________________________________________________
dense_95 (Dense)                (200, 5)             40          concatenate_79[0][0]             
                                                                 concatenate_80[0][0]             
__________________________________________________________________________________________________
dense_96 (Dense)                (200, 5)             40          concatenate_80[0][0]             
                                                                 concatenate_79[0][0]             
__________________________________________________________________________________________________
dense_97 (Dense)                (200, 5)             40          concatenate_81[0][0]             
                                                                 concatenate_82[0][0]             
__________________________________________________________________________________________________
dense_98 (Dense)                (200, 5)             40          concatenate_82[0][0]             
                                                                 concatenate_81[0][0]             
__________________________________________________________________________________________________
dense_99 (Dense)                (200, 5)             40          concatenate_83[0][0]             
                                                                 concatenate_84[0][0]             
__________________________________________________________________________________________________
dense_100 (Dense)               (200, 5)             40          concatenate_84[0][0]             
                                                                 concatenate_83[0][0]             
__________________________________________________________________________________________________
dense_101 (Dense)               (200, 5)             40          concatenate_85[0][0]             
                                                                 concatenate_86[0][0]             
__________________________________________________________________________________________________
dense_102 (Dense)               (200, 5)             40          concatenate_86[0][0]             
                                                                 concatenate_85[0][0]             
__________________________________________________________________________________________________
dense_103 (Dense)               (200, 5)             40          concatenate_87[0][0]             
                                                                 concatenate_88[0][0]             
__________________________________________________________________________________________________
dense_104 (Dense)               (200, 5)             40          concatenate_88[0][0]             
                                                                 concatenate_87[0][0]             
__________________________________________________________________________________________________
dense_105 (Dense)               (200, 5)             40          concatenate_89[0][0]             
                                                                 concatenate_90[0][0]             
__________________________________________________________________________________________________
dense_106 (Dense)               (200, 5)             40          concatenate_90[0][0]             
                                                                 concatenate_89[0][0]             
__________________________________________________________________________________________________
dense_107 (Dense)               (200, 5)             40          concatenate_91[0][0]             
                                                                 concatenate_92[0][0]             
__________________________________________________________________________________________________
dense_108 (Dense)               (200, 5)             40          concatenate_92[0][0]             
                                                                 concatenate_91[0][0]             
__________________________________________________________________________________________________
dense_109 (Dense)               (200, 5)             40          concatenate_93[0][0]             
                                                                 concatenate_94[0][0]             
__________________________________________________________________________________________________
dense_110 (Dense)               (200, 5)             40          concatenate_94[0][0]             
                                                                 concatenate_93[0][0]             
__________________________________________________________________________________________________
dense_111 (Dense)               (200, 5)             40          concatenate_95[0][0]             
                                                                 concatenate_96[0][0]             
__________________________________________________________________________________________________
dense_112 (Dense)               (200, 5)             40          concatenate_96[0][0]             
…
concatenate_491 (Concatenate)   (200, 64)            0           subtract_394[0][0]               
                                                                 subtract_390[0][0]               
__________________________________________________________________________________________________
concatenate_492 (Concatenate)   (200, 64)            0           add_522[0][0]                    
                                                                 add_520[0][0]                    
__________________________________________________________________________________________________
lambda_531 (Lambda)             (200, 8)             0           concatenate_491[0][0]            
__________________________________________________________________________________________________
lambda_533 (Lambda)             (200, 8)             0           concatenate_491[0][0]            
__________________________________________________________________________________________________
lambda_532 (Lambda)             (200, 8)             0           concatenate_492[0][0]            
__________________________________________________________________________________________________
lambda_534 (Lambda)             (200, 8)             0           concatenate_492[0][0]            
__________________________________________________________________________________________________
lambda_535 (Lambda)             (200, 8)             0           concatenate_491[0][0]            
__________________________________________________________________________________________________
lambda_537 (Lambda)             (200, 8)             0           concatenate_491[0][0]            
__________________________________________________________________________________________________
lambda_536 (Lambda)             (200, 8)             0           concatenate_492[0][0]            
__________________________________________________________________________________________________
lambda_538 (Lambda)             (200, 8)             0           concatenate_492[0][0]            
__________________________________________________________________________________________________
lambda_539 (Lambda)             (200, 8)             0           concatenate_491[0][0]            
__________________________________________________________________________________________________
lambda_541 (Lambda)             (200, 8)             0           concatenate_491[0][0]            
__________________________________________________________________________________________________
lambda_540 (Lambda)             (200, 8)             0           concatenate_492[0][0]            
__________________________________________________________________________________________________
lambda_542 (Lambda)             (200, 8)             0           concatenate_492[0][0]            
__________________________________________________________________________________________________
lambda_543 (Lambda)             (200, 8)             0           concatenate_491[0][0]            
__________________________________________________________________________________________________
lambda_545 (Lambda)             (200, 8)             0           concatenate_491[0][0]            
__________________________________________________________________________________________________
lambda_544 (Lambda)             (200, 8)             0           concatenate_492[0][0]            
__________________________________________________________________________________________________
lambda_546 (Lambda)             (200, 8)             0           concatenate_492[0][0]            
__________________________________________________________________________________________________
concatenate_493 (Concatenate)   (200, 16)            0           lambda_531[0][0]                 
                                                                 lambda_533[0][0]                 
__________________________________________________________________________________________________
concatenate_494 (Concatenate)   (200, 16)            0           lambda_532[0][0]                 
                                                                 lambda_534[0][0]                 
__________________________________________________________________________________________________
concatenate_495 (Concatenate)   (200, 16)            0           lambda_535[0][0]                 
                                                                 lambda_537[0][0]                 
__________________________________________________________________________________________________
concatenate_496 (Concatenate)   (200, 16)            0           lambda_536[0][0]                 
                                                                 lambda_538[0][0]                 
__________________________________________________________________________________________________
concatenate_497 (Concatenate)   (200, 16)            0           lambda_539[0][0]                 
                                                                 lambda_541[0][0]                 
__________________________________________________________________________________________________
concatenate_498 (Concatenate)   (200, 16)            0           lambda_540[0][0]                 
                                                                 lambda_542[0][0]                 
__________________________________________________________________________________________________
concatenate_499 (Concatenate)   (200, 16)            0           lambda_543[0][0]                 
                                                                 lambda_545[0][0]                 
__________________________________________________________________________________________________
concatenate_500 (Concatenate)   (200, 16)            0           lambda_544[0][0]                 
                                                                 lambda_546[0][0]                 
__________________________________________________________________________________________________
dense_741 (Dense)               (200, 5)             80          concatenate_493[0][0]            
                                                                 concatenate_494[0][0]            
__________________________________________________________________________________________________
dense_742 (Dense)               (200, 5)             80          concatenate_494[0][0]            
                                                                 concatenate_493[0][0]            
__________________________________________________________________________________________________
dense_743 (Dense)               (200, 5)             80          concatenate_495[0][0]            
                                                                 concatenate_496[0][0]            
__________________________________________________________________________________________________
dense_744 (Dense)               (200, 5)             80          concatenate_496[0][0]            
                                                                 concatenate_495[0][0]            
__________________________________________________________________________________________________
dense_745 (Dense)               (200, 5)             80          concatenate_497[0][0]            
                                                                 concatenate_498[0][0]            
__________________________________________________________________________________________________
dense_746 (Dense)               (200, 5)             80          concatenate_498[0][0]            
                                                                 concatenate_497[0][0]            
__________________________________________________________________________________________________
dense_747 (Dense)               (200, 5)             80          concatenate_499[0][0]            
                                                                 concatenate_500[0][0]            
__________________________________________________________________________________________________
dense_748 (Dense)               (200, 5)             80          concatenate_500[0][0]            
                                                                 concatenate_499[0][0]            
__________________________________________________________________________________________________
concatenate_501 (Concatenate)   (200, 16)            0           lambda_531[0][0]                 
                                                                 lambda_533[0][0]                 
__________________________________________________________________________________________________
concatenate_502 (Concatenate)   (200, 16)            0           lambda_532[0][0]                 
                                                                 lambda_534[0][0]                 
__________________________________________________________________________________________________
concatenate_503 (Concatenate)   (200, 16)            0           lambda_535[0][0]                 
                                                                 lambda_537[0][0]                 
__________________________________________________________________________________________________
concatenate_504 (Concatenate)   (200, 16)            0           lambda_536[0][0]                 
                                                                 lambda_538[0][0]                 
__________________________________________________________________________________________________
concatenate_505 (Concatenate)   (200, 16)            0           lambda_539[0][0]                 
                                                                 lambda_541[0][0]                 
__________________________________________________________________________________________________
concatenate_506 (Concatenate)   (200, 16)            0           lambda_540[0][0]                 
                                                                 lambda_542[0][0]                 
__________________________________________________________________________________________________
concatenate_507 (Concatenate)   (200, 16)            0           lambda_543[0][0]                 
                                                                 lambda_545[0][0]                 
__________________________________________________________________________________________________
concatenate_508 (Concatenate)   (200, 16)            0           lambda_544[0][0]                 
                                                                 lambda_546[0][0]                 
__________________________________________________________________________________________________
subtract_395 (Subtract)         (200, 5)             0           dense_741[0][0]                  
                                                                 dense_742[0][0]                  
__________________________________________________________________________________________________
subtract_396 (Subtract)         (200, 5)             0           dense_743[0][0]                  
                                                                 dense_744[0][0]                  
__________________________________________________________________________________________________
add_523 (Add)                   (200, 5)             0           dense_741[1][0]                  
                                                                 dense_742[1][0]                  
__________________________________________________________________________________________________
add_524 (Add)                   (200, 5)             0           dense_743[1][0]                  
                                                                 dense_744[1][0]                  
__________________________________________________________________________________________________
subtract_397 (Subtract)         (200, 5)             0           dense_745[0][0]                  
                                                                 dense_746[0][0]                  
__________________________________________________________________________________________________
subtract_398 (Subtract)         (200, 5)             0           dense_747[0][0]                  
                                                                 dense_748[0][0]                  
__________________________________________________________________________________________________
add_525 (Add)                   (200, 5)             0           dense_745[1][0]                  
                                                                 dense_746[1][0]                  
__________________________________________________________________________________________________
add_526 (Add)                   (200, 5)             0           dense_747[1][0]                  
                                                                 dense_748[1][0]                  
__________________________________________________________________________________________________
dense_749 (Dense)               (200, 5)             80          concatenate_501[0][0]            
                                                                 concatenate_502[0][0]            
__________________________________________________________________________________________________
dense_750 (Dense)               (200, 5)             80          concatenate_502[0][0]            
                                                                 concatenate_501[0][0]            
__________________________________________________________________________________________________
dense_751 (Dense)               (200, 5)             80          concatenate_503[0][0]            
                                                                 concatenate_504[0][0]            
__________________________________________________________________________________________________
dense_752 (Dense)               (200, 5)             80          concatenate_504[0][0]            
                                                                 concatenate_503[0][0]            
__________________________________________________________________________________________________
dense_753 (Dense)               (200, 5)             80          concatenate_505[0][0]            
                                                                 concatenate_506[0][0]            
__________________________________________________________________________________________________
dense_754 (Dense)               (200, 5)             80          concatenate_506[0][0]            
                                                                 concatenate_505[0][0]            
__________________________________________________________________________________________________
dense_755 (Dense)               (200, 5)             80          concatenate_507[0][0]            
                                                                 concatenate_508[0][0]            
__________________________________________________________________________________________________
dense_756 (Dense)               (200, 5)             80          concatenate_508[0][0]            
                                                                 concatenate_507[0][0]            
__________________________________________________________________________________________________
concatenate_509 (Concatenate)   (200, 10)            0           subtract_395[0][0]               
                                                                 subtract_396[0][0]               
__________________________________________________________________________________________________
concatenate_510 (Concatenate)   (200, 10)            0           add_523[0][0]                    
                                                                 add_524[0][0]                    
__________________________________________________________________________________________________
concatenate_513 (Concatenate)   (200, 10)            0           subtract_397[0][0]               
                                                                 subtract_398[0][0]               
__________________________________________________________________________________________________
concatenate_514 (Concatenate)   (200, 10)            0           add_525[0][0]                    
                                                                 add_526[0][0]                    
__________________________________________________________________________________________________
subtract_399 (Subtract)         (200, 5)             0           dense_749[0][0]                  
                                                                 dense_750[0][0]                  
__________________________________________________________________________________________________
subtract_400 (Subtract)         (200, 5)             0           dense_751[0][0]                  
                                                                 dense_752[0][0]                  
__________________________________________________________________________________________________
add_527 (Add)                   (200, 5)             0           dense_749[1][0]                  
                                                                 dense_750[1][0]                  
__________________________________________________________________________________________________
add_528 (Add)                   (200, 5)             0           dense_751[1][0]                  
                                                                 dense_752[1][0]                  
__________________________________________________________________________________________________
subtract_401 (Subtract)         (200, 5)             0           dense_753[0][0]                  
                                                                 dense_754[0][0]                  
__________________________________________________________________________________________________
subtract_402 (Subtract)         (200, 5)             0           dense_755[0][0]                  
                                                                 dense_756[0][0]                  
__________________________________________________________________________________________________
add_529 (Add)                   (200, 5)             0           dense_753[1][0]                  
                                                                 dense_754[1][0]                  
__________________________________________________________________________________________________
add_530 (Add)                   (200, 5)             0           dense_755[1][0]                  
                                                                 dense_756[1][0]                  
__________________________________________________________________________________________________
dense_757 (Dense)               (200, 10)            100         concatenate_509[0][0]            
                                                                 concatenate_510[0][0]            
__________________________________________________________________________________________________
dense_758 (Dense)               (200, 10)            100         concatenate_510[0][0]            
                                                                 concatenate_509[0][0]            
__________________________________________________________________________________________________
dense_761 (Dense)               (200, 10)            100         concatenate_513[0][0]            
                                                                 concatenate_514[0][0]            
__________________________________________________________________________________________________
dense_762 (Dense)               (200, 10)            100         concatenate_514[0][0]            
                                                                 concatenate_513[0][0]            
__________________________________________________________________________________________________
concatenate_511 (Concatenate)   (200, 10)            0           subtract_399[0][0]               
                                                                 subtract_400[0][0]               
__________________________________________________________________________________________________
concatenate_512 (Concatenate)   (200, 10)            0           add_527[0][0]                    
                                                                 add_528[0][0]                    
__________________________________________________________________________________________________
concatenate_515 (Concatenate)   (200, 10)            0           subtract_401[0][0]               
                                                                 subtract_402[0][0]               
__________________________________________________________________________________________________
concatenate_516 (Concatenate)   (200, 10)            0           add_529[0][0]                    
                                                                 add_530[0][0]                    
__________________________________________________________________________________________________
subtract_403 (Subtract)         (200, 10)            0           dense_757[0][0]                  
                                                                 dense_758[0][0]                  
__________________________________________________________________________________________________
add_531 (Add)                   (200, 10)            0           dense_757[1][0]                  
                                                                 dense_758[1][0]                  
__________________________________________________________________________________________________
subtract_405 (Subtract)         (200, 10)            0           dense_761[0][0]                  
                                                                 dense_762[0][0]                  
__________________________________________________________________________________________________
add_533 (Add)                   (200, 10)            0           dense_761[1][0]                  
                                                                 dense_762[1][0]                  
__________________________________________________________________________________________________
dense_759 (Dense)               (200, 10)            100         concatenate_511[0][0]            
                                                                 concatenate_512[0][0]            
__________________________________________________________________________________________________
dense_760 (Dense)               (200, 10)            100         concatenate_512[0][0]            
                                                                 concatenate_511[0][0]            
__________________________________________________________________________________________________
dense_763 (Dense)               (200, 10)            100         concatenate_515[0][0]            
                                                                 concatenate_516[0][0]            
__________________________________________________________________________________________________
dense_764 (Dense)               (200, 10)            100         concatenate_516[0][0]            
                                                                 concatenate_515[0][0]            
__________________________________________________________________________________________________
lambda_547 (Lambda)             (200, 5)             0           subtract_403[0][0]               
__________________________________________________________________________________________________
lambda_548 (Lambda)             (200, 5)             0           add_531[0][0]                    
__________________________________________________________________________________________________
lambda_555 (Lambda)             (200, 5)             0           subtract_405[0][0]               
__________________________________________________________________________________________________
lambda_556 (Lambda)             (200, 5)             0           add_533[0][0]                    
__________________________________________________________________________________________________
lambda_549 (Lambda)             (200, 5)             0           subtract_403[0][0]               
__________________________________________________________________________________________________
lambda_550 (Lambda)             (200, 5)             0           add_531[0][0]                    
__________________________________________________________________________________________________
lambda_557 (Lambda)             (200, 5)             0           subtract_405[0][0]               
__________________________________________________________________________________________________
lambda_558 (Lambda)             (200, 5)             0           add_533[0][0]                    
__________________________________________________________________________________________________
subtract_404 (Subtract)         (200, 10)            0           dense_759[0][0]                  
                                                                 dense_760[0][0]                  
__________________________________________________________________________________________________
add_532 (Add)                   (200, 10)            0           dense_759[1][0]                  
                                                                 dense_760[1][0]                  
__________________________________________________________________________________________________
subtract_406 (Subtract)         (200, 10)            0           dense_763[0][0]                  
                                                                 dense_764[0][0]                  
__________________________________________________________________________________________________
add_534 (Add)                   (200, 10)            0           dense_763[1][0]                  
                                                                 dense_764[1][0]                  
__________________________________________________________________________________________________
dense_765 (Dense)               (200, 16)            80          lambda_547[0][0]                 
                                                                 lambda_548[0][0]                 
__________________________________________________________________________________________________
dense_766 (Dense)               (200, 16)            80          lambda_548[0][0]                 
                                                                 lambda_547[0][0]                 
__________________________________________________________________________________________________
dense_767 (Dense)               (200, 16)            80          lambda_555[0][0]                 
                                                                 lambda_556[0][0]                 
__________________________________________________________________________________________________
dense_768 (Dense)               (200, 16)            80          lambda_556[0][0]                 
                                                                 lambda_555[0][0]                 
__________________________________________________________________________________________________
dense_769 (Dense)               (200, 16)            80          lambda_549[0][0]                 
                                                                 lambda_550[0][0]                 
__________________________________________________________________________________________________
dense_770 (Dense)               (200, 16)            80          lambda_550[0][0]                 
                                                                 lambda_549[0][0]                 
__________________________________________________________________________________________________
dense_771 (Dense)               (200, 16)            80          lambda_557[0][0]                 
                                                                 lambda_558[0][0]                 
__________________________________________________________________________________________________
dense_772 (Dense)               (200, 16)            80          lambda_558[0][0]                 
                                                                 lambda_557[0][0]                 
__________________________________________________________________________________________________
lambda_551 (Lambda)             (200, 5)             0           subtract_404[0][0]               
__________________________________________________________________________________________________
lambda_552 (Lambda)             (200, 5)             0           add_532[0][0]                    
__________________________________________________________________________________________________
lambda_559 (Lambda)             (200, 5)             0           subtract_406[0][0]               
__________________________________________________________________________________________________
lambda_560 (Lambda)             (200, 5)             0           add_534[0][0]                    
__________________________________________________________________________________________________
subtract_407 (Subtract)         (200, 16)            0           dense_765[0][0]                  
                                                                 dense_766[0][0]                  
__________________________________________________________________________________________________
subtract_408 (Subtract)         (200, 16)            0           dense_767[0][0]                  
                                                                 dense_768[0][0]                  
__________________________________________________________________________________________________
subtract_409 (Subtract)         (200, 16)            0           dense_769[0][0]                  
                                                                 dense_770[0][0]                  
__________________________________________________________________________________________________
subtract_410 (Subtract)         (200, 16)            0           dense_771[0][0]                  
                                                                 dense_772[0][0]                  
__________________________________________________________________________________________________
dense_773 (Dense)               (200, 16)            80          lambda_551[0][0]                 
                                                                 lambda_552[0][0]                 
__________________________________________________________________________________________________
dense_774 (Dense)               (200, 16)            80          lambda_552[0][0]                 
                                                                 lambda_551[0][0]                 
__________________________________________________________________________________________________
dense_775 (Dense)               (200, 16)            80          lambda_559[0][0]                 
                                                                 lambda_560[0][0]                 
__________________________________________________________________________________________________
dense_776 (Dense)               (200, 16)            80          lambda_560[0][0]                 
                                                                 lambda_559[0][0]                 
__________________________________________________________________________________________________
lambda_553 (Lambda)             (200, 5)             0           subtract_404[0][0]               
__________________________________________________________________________________________________
lambda_554 (Lambda)             (200, 5)             0           add_532[0][0]                    
__________________________________________________________________________________________________
lambda_561 (Lambda)             (200, 5)             0           subtract_406[0][0]               
__________________________________________________________________________________________________
lambda_562 (Lambda)             (200, 5)             0           add_534[0][0]                    
__________________________________________________________________________________________________
add_535 (Add)                   (200, 16)            0           dense_765[1][0]                  
                                                                 dense_766[1][0]                  
__________________________________________________________________________________________________
add_536 (Add)                   (200, 16)            0           dense_767[1][0]                  
                                                                 dense_768[1][0]                  
__________________________________________________________________________________________________
add_539 (Add)                   (200, 16)            0           dense_769[1][0]                  
                                                                 dense_770[1][0]                  
__________________________________________________________________________________________________
add_540 (Add)                   (200, 16)            0           dense_771[1][0]                  
                                                                 dense_772[1][0]                  
__________________________________________________________________________________________________
add_537 (Add)                   (200, 16)            0           subtract_407[0][0]               
                                                                 subtract_408[0][0]               
__________________________________________________________________________________________________
add_541 (Add)                   (200, 16)            0           subtract_409[0][0]               
                                                                 subtract_410[0][0]               
__________________________________________________________________________________________________
subtract_411 (Subtract)         (200, 16)            0           dense_773[0][0]                  
                                                                 dense_774[0][0]                  
__________________________________________________________________________________________________
subtract_412 (Subtract)         (200, 16)            0           dense_775[0][0]                  
                                                                 dense_776[0][0]                  
__________________________________________________________________________________________________
dense_777 (Dense)               (200, 16)            80          lambda_553[0][0]                 
                                                                 lambda_554[0][0]                 
__________________________________________________________________________________________________
dense_778 (Dense)               (200, 16)            80          lambda_554[0][0]                 
                                                                 lambda_553[0][0]                 
__________________________________________________________________________________________________
dense_779 (Dense)               (200, 16)            80          lambda_561[0][0]                 
                                                                 lambda_562[0][0]                 
__________________________________________________________________________________________________
dense_780 (Dense)               (200, 16)            80          lambda_562[0][0]                 
                                                                 lambda_561[0][0]                 
__________________________________________________________________________________________________
add_538 (Add)                   (200, 16)            0           add_535[0][0]                    
                                                                 add_536[0][0]                    
__________________________________________________________________________________________________
add_542 (Add)                   (200, 16)            0           add_539[0][0]                    
                                                                 add_540[0][0]                    
__________________________________________________________________________________________________
add_543 (Add)                   (200, 16)            0           dense_773[1][0]                  
                                                                 dense_774[1][0]                  
__________________________________________________________________________________________________
add_544 (Add)                   (200, 16)            0           dense_775[1][0]                  
                                                                 dense_776[1][0]                  
__________________________________________________________________________________________________
concatenate_517 (Concatenate)   (200, 32)            0           add_537[0][0]                    
                                                                 add_541[0][0]                    
__________________________________________________________________________________________________
add_545 (Add)                   (200, 16)            0           subtract_411[0][0]               
                                                                 subtract_412[0][0]               
__________________________________________________________________________________________________
subtract_413 (Subtract)         (200, 16)            0           dense_777[0][0]                  
                                                                 dense_778[0][0]                  
__________________________________________________________________________________________________
subtract_414 (Subtract)         (200, 16)            0           dense_779[0][0]                  
                                                                 dense_780[0][0]                  
__________________________________________________________________________________________________
concatenate_518 (Concatenate)   (200, 32)            0           add_538[0][0]                    
                                                                 add_542[0][0]                    
__________________________________________________________________________________________________
add_546 (Add)                   (200, 16)            0           add_543[0][0]                    
                                                                 add_544[0][0]                    
__________________________________________________________________________________________________
add_547 (Add)                   (200, 16)            0           dense_777[1][0]                  
                                                                 dense_778[1][0]                  
__________________________________________________________________________________________________
add_548 (Add)                   (200, 16)            0           dense_779[1][0]                  
                                                                 dense_780[1][0]                  
__________________________________________________________________________________________________
concatenate_519 (Concatenate)   (200, 48)            0           concatenate_517[0][0]            
                                                                 add_545[0][0]                    
__________________________________________________________________________________________________
add_549 (Add)                   (200, 16)            0           subtract_413[0][0]               
                                                                 subtract_414[0][0]               
__________________________________________________________________________________________________
concatenate_520 (Concatenate)   (200, 48)            0           concatenate_518[0][0]            
                                                                 add_546[0][0]                    
__________________________________________________________________________________________________
add_550 (Add)                   (200, 16)            0           add_547[0][0]                    
                                                                 add_548[0][0]                    
__________________________________________________________________________________________________
lambda_563 (Lambda)             (200, 64)            0           subtract_388[0][0]               
__________________________________________________________________________________________________
concatenate_521 (Concatenate)   (200, 64)            0           concatenate_519[0][0]            
                                                                 add_549[0][0]                    
__________________________________________________________________________________________________
lambda_564 (Lambda)             (200, 64)            0           subtract_389[0][0]               
__________________________________________________________________________________________________
concatenate_522 (Concatenate)   (200, 64)            0           concatenate_520[0][0]            
                                                                 add_550[0][0]                    
__________________________________________________________________________________________________
subtract_415 (Subtract)         (200, 64)            0           lambda_563[0][0]                 
                                                                 concatenate_521[0][0]            
__________________________________________________________________________________________________
subtract_416 (Subtract)         (200, 64)            0           lambda_564[0][0]                 
                                                                 concatenate_522[0][0]            
__________________________________________________________________________________________________
lambda_565 (Lambda)             (200, 32)            0           subtract_415[0][0]               
__________________________________________________________________________________________________
lambda_566 (Lambda)             (200, 32)            0           subtract_416[0][0]               
__________________________________________________________________________________________________
dense_781 (Dense)               (200, 32)            1024        lambda_565[0][0]                 
                                                                 lambda_566[0][0]                 
__________________________________________________________________________________________________
dense_782 (Dense)               (200, 32)            1024        lambda_566[0][0]                 
                                                                 lambda_565[0][0]                 
__________________________________________________________________________________________________
subtract_417 (Subtract)         (200, 32)            0           dense_781[0][0]                  
                                                                 dense_782[0][0]                  
__________________________________________________________________________________________________
add_551 (Add)                   (200, 32)            0           dense_781[1][0]                  
                                                                 dense_782[1][0]                  
__________________________________________________________________________________________________
dense_783 (Dense)               (200, 32)            1024        subtract_417[0][0]               
                                                                 add_551[0][0]                    
__________________________________________________________________________________________________
dense_784 (Dense)               (200, 32)            1024        add_551[0][0]                    
                                                                 subtract_417[0][0]               
__________________________________________________________________________________________________
lambda_567 (Lambda)             (200, 32)            0           subtract_415[0][0]               
__________________________________________________________________________________________________
subtract_418 (Subtract)         (200, 32)            0           dense_783[0][0]                  
                                                                 dense_784[0][0]                  
__________________________________________________________________________________________________
lambda_568 (Lambda)             (200, 32)            0           subtract_416[0][0]               
__________________________________________________________________________________________________2019-05-17 23:03:49.758349: I tensorflow/core/platform/cpu_feature_guard.cc:140] Your CPU supports instructions that this TensorFlow binary was not compiled to use: AVX2 FMA

add_552 (Add)                   (200, 32)            0           dense_783[1][0]                  
                                                                 dense_784[1][0]                  
__________________________________________________________________________________________________
subtract_419 (Subtract)         (200, 32)            0           lambda_567[0][0]                 
                                                                 subtract_418[0][0]               
__________________________________________________________________________________________________
subtract_420 (Subtract)         (200, 32)            0           lambda_568[0][0]                 
                                                                 add_552[0][0]                    
__________________________________________________________________________________________________
dense_785 (Dense)               (200, 32)            1024        subtract_419[0][0]               
                                                                 subtract_420[0][0]               
__________________________________________________________________________________________________
dense_786 (Dense)               (200, 32)            1024        subtract_420[0][0]               
                                                                 subtract_419[0][0]               
__________________________________________________________________________________________________
subtract_421 (Subtract)         (200, 32)            0           dense_785[0][0]                  
                                                                 dense_786[0][0]                  
__________________________________________________________________________________________________
add_553 (Add)                   (200, 32)            0           dense_785[1][0]                  
                                                                 dense_786[1][0]                  
__________________________________________________________________________________________________
concatenate_523 (Concatenate)   (200, 64)            0           subtract_421[0][0]               
                                                                 subtract_417[0][0]               
__________________________________________________________________________________________________
concatenate_524 (Concatenate)   (200, 64)            0           add_553[0][0]                    
                                                                 add_551[0][0]                    
__________________________________________________________________________________________________
concatenate_525 (Concatenate)   (200, 128)           0           concatenate_523[0][0]            
                                                                 concatenate_491[0][0]            
__________________________________________________________________________________________________
concatenate_526 (Concatenate)   (200, 128)           0           concatenate_524[0][0]            
                                                                 concatenate_492[0][0]            
__________________________________________________________________________________________________
concatenate_527 (Concatenate)   (200, 256)           0           concatenate_525[0][0]            
                                                                 concatenate_299[0][0]            
__________________________________________________________________________________________________
concatenate_528 (Concatenate)   (200, 256)           0           concatenate_526[0][0]            
                                                                 concatenate_300[0][0]            
==================================================================================================
Total params: 223,104
Trainable params: 92,032
Non-trainable params: 131,072
__________________________________________________________________________________________________
…
